deployment_outputs/skipconnect_sepconv3x3_sepconv5x5_pruned.pth (torch, 37451 bytes, 27 tensors)

layers.1.0.weight f4 [16, 1, 3, 3]
000000 da f9 0e 3e 9d ff 94 3e 60 6c 19 3e ee f7 43 be
       0.13962498 0.29101267 0.14982748 -0.19137546
000010 f1 c7 90 3e 00 00 00 80 00 00 00 00 b3 c9 90 3e
       0.28277543 -0.0 0.0 0.28278884
000020 46 59 6a 3e c0 1f a6 bd aa 31 10 3e e8 31 7c be
       0.22885618 -0.081115246 0.14081445 -0.24628413
000030 00 00 00 00 f5 e0 9a 3e 26 b5 3f be 02 83 6f 3e
       0.0 0.30249754 -0.18721446 0.2338982
000040 84 58 86 bd 00 00 00 00 c4 eb e5 3d 00 00 00 80
       -0.06559852 0.0 0.11226609 -0.0
000050 eb 7e 8b be c0 b6 3f be 88 4b 8e be 78 c4 1e be
       -0.27245268 -0.18722057 -0.27792 -0.15504634
000060 d8 32 6d be 18 6e 02 3e 78 db 0e 3e 60 36 ff 3d
       -0.23163927 0.1273731 0.13950908 0.12461543
000070 54 80 9d bd 00 00 00 80 00 00 00 80 88 37 71 be
       -0.07690492 -0.0 -0.0 -0.2355634
000080 74 de a1 be 93 02 9b be 00 00 00 00 a6 a3 2a be
       -0.3161503 -0.302754 0.0 -0.1666399
000090 00 00 00 80 7c 2f b4 bd fe 1c 20 be 00 00 00 80
       -0.0 -0.087981194 -0.1563606 -0.0
0000a0 06 9b 69 3e 00 00 00 00 b6 19 b3 bd e6 80 e3 bd
       0.22813043 0.0 -0.08745138 -0.1110857
0000b0 d0 b2 1c be e6 11 24 be e6 8c 12 be 92 72 42 3e
       -0.15302587 -0.16022453 -0.14311561 0.18989018
0000c0 ac 44 a0 3d 93 1f 42 be 5b 37 00 be 00 00 00 00
       0.07825598 -0.18957357 -0.12521116 0.0
0000d0 21 7e 82 3e dc 19 8c 3d 33 46 a9 be 00 00 00 80
       0.25486854 0.0684087 -0.3306137 -0.0
0000e0 dc dc eb 3d eb 9b 02 be 5a f1 62 3e 22 d4 9f be
       0.11516735 -0.1275479 0.22162381 -0.31216532
0000f0 00 00 00 80 e1 2a 99 3e c4 6f c0 3d 86 50 01 be
       -0.0 0.29915527 0.093963176 -0.12628374
000100 ea 49 88 be 4e c3 4a be 52 84 a4 be 00 00 00 00
       -0.26618892 -0.19801065 -0.32132202 0.0
000110 fd 7a a2 3e 04 13 b4 3d da a3 9d be 3e d2 02 3e
       0.31734458 0.087926894 -0.3078907 0.12775514
000120 34 1e aa bd 00 00 00 80 9a e8 3b 3e 0a aa 90 be
       -0.08306542 -0.0 0.18350449 -0.2825473
000130 b3 4f a5 be 00 00 00 00 d8 04 22 be c7 4f 9e be
       -0.32287368 0.0 -0.1582216 -0.3092024
000140 56 3d 54 3e ea c2 77 3e 3f f5 9e be c4 08 df 3d
       0.20726523 0.24195448 -0.31046483 0.10890344
000150 e0 8e 99 3d 40 e5 ee bd 2f 1a aa be a0 e5 eb 3d
       0.07497954 -0.1166482 -0.33223101 0.11518407
000160 00 00 00 00 e3 bd 2b be 87 0d 94 3e 1a a8 6f 3e
       0.0 -0.16771655 0.2891657 0.2340397
000170 b0 a4 09 be 1d c4 8a 3e c9 c8 9d 3e 00 00 00 80
       -0.1344173 0.27102748 0.3081725 -0.0
000180 2b ca 6e be 00 a9 0a be 08 57 5b be 98 35 a2 be
       -0.23319308 -0.13541031 -0.21419919 -0.31681514
000190 0f c1 a1 3e d6 23 0f 3e 54 97 f7 3d 60 62 ca 3d
       0.31592605 0.13978514 0.120894104 0.09882045
0001a0 40 c6 1d 3e 0b ae 00 be ae d2 65 3e ce fa 05 be
       0.15407658 -0.12566392 0.22443649 -0.13083956
0001b0 dd 19 83 3e 12 8a 1f 3e 00 00 00 00 84 0c f0 3d
       0.2560567 0.15580013 0.0 0.11721137
0001c0 00 00 00 80 87 46 91 3e b0 da f2 bd 00 00 00 80
       -0.0 0.2837412 -0.118581176 -0.0
0001d0 a8 55 51 be 82 af 37 3e fb ad 9d 3e a8 6d 80 be
       -0.20442832 0.17938045 0.307968 -0.2508366
0001e0 00 4b 14 3e cc 9f b0 3d 2b 4e 83 3e 05 84 92 3e
       0.14481735 0.08624229 0.25645575 0.28616348
0001f0 67 65 85 3e 28 67 a7 be 00 00 00 80 88 da 76 3d
       0.26053926 -0.3269589 -0.0 0.060267
000200 d4 27 f8 3d 35 13 93 3e 56 9e 9e be 00 00 00 80
       0.121169716 0.2872559 -0.30980176 -0.0
000210 3b 4c 8f 3e 5e b4 07 3e 13 14 66 be 58 26 7c 3d
       0.27987847 0.13252398 -0.22468595 0.061560005
000220 c4 bd ea 3d 12 9d 47 3e 00 00 00 80 00 00 00 00
       0.11461976 0.19493511 -0.0 0.0
000230 08 c0 1d be 66 bf 3d be 3b fb 09 be d2 0d 3c 3e
       -0.15405285 -0.18530044 -0.13474743 0.18364647

layers.1.1.weight f4 [16, 16, 1, 1]
000000 a6 80 41 be 9c f8 9f 3d 0a d6 27 3e 08 0b 98 bd
       -0.18896732 0.0781109 0.16390243 -0.07423979
000010 3a 3c 3b 3e 1a 1c 7e be ae a1 43 be c4 dc fe bd
       0.18284693 -0.24815407 -0.19104645 -0.124444515
000020 48 2b cf 3d ac 88 d3 bd d8 9d 03 be b2 d6 49 3e
       0.10115677 -0.103288025 -0.12853181 0.19710806
000030 fc 9f ef 3d 74 12 ff bd 00 00 00 80 28 27 da bd
       0.117004365 -0.124546915 -0.0 -0.10652
000040 fa 44 72 3e ec e0 fb 3d 1c 3f 1e 3e 8c d6 25 3e
       0.23659125 0.1229876 0.15453762 0.16195124
000050 00 00 00 80 88 b2 57 3e b0 ea 7b 3e 60 2f 71 be
       -0.0 0.21064198 0.24601245 -0.23553228
000060 8c 6f cb 3d da cf 30 3e 00 00 00 00 f4 c7 4f be
       0.09933385 0.17266789 0.0 -0.2029112
000070 40 20 e0 3d d8 28 c5 3d cc c3 3f 3e ae b4 00 3e
       0.10943651 0.09626931 0.18727034 0.12568924
000080 00 00 00 80 98 fd f5 3d 82 d4 11 3e c6 37 46 be
       -0.0 0.1201126 0.14241222 -0.19357213
000090 06 07 3e be c6 6d 20 be 16 9a 20 3e 3c b9 4a be
       -0.18557367 -0.15666875 0.15683779 -0.19797224
0000a0 82 e3 63 3e b0 a9 83 3d 00 00 00 00 f4 3f 80 3d
       0.22254756 0.0642885 0.0 0.06262198
0000b0 44 2f 59 be 84 99 a3 3d d8 a9 4a be 64 58 60 3e
       -0.21209437 0.07988265 -0.19791353 0.21908718
0000c0 24 4a 89 3d b4 a9 da bd 00 00 00 80 f8 dc 6e be
       0.06703594 -0.106768996 -0.0 -0.2332648
0000d0 1a 5b 2f 3e d2 02 54 3e 1c 41 48 3e ac cb 18 3e
       0.17124596 0.20704201 0.19556087 0.14921445
0000e0 a0 f7 12 3e cc 59 8c bd 00 00 00 80 f8 42 af 3d
       0.14352274 -0.06853065 -0.0 0.08557695
0000f0 3e 90 52 3e 86 54 79 3e d6 6a 00 3e 12 72 59 be
       0.20562837 0.2434865 0.12540755 -0.2123492
000100 00 00 00 80 be 32 42 be 8c 79 1a be cc 87 2e be
       -0.0 -0.18964669 -0.15085429 -0.1704399
000110 00 00 00 80 64 c8 51 be 38 3c 9b bd 28 75 1a be
       -0.0 -0.20486599 -0.07579845 -0.15083754
000120 ea a0 2b 3e e8 5e e1 bd 00 00 00 00 fc 6f eb bd
       0.16760603 -0.1100443 0.0 -0.11495969
000130 de a4 0c 3e c0 3a 8f 3d fa 74 0c be 88 31 a9 bd
       0.13734767 0.069936275 -0.13716498 -0.082614005
000140 78 a1 bc bd f0 f2 71 3d 00 00 00 80 d8 af 17 3e
       -0.09210485 0.059069574 -0.0 0.14813173
000150 6a 7f 16 be 84 40 5d 3e e8 c0 0d 3e 48 dc 3c 3e
       -0.14697042 0.21606642 0.13843119 0.18443406
000160 2a 5f 1f be 00 00 00 00 00 00 00 80 c0 f7 9b 3d
       -0.15563646 0.0 -0.0 0.07615614
000170 54 66 57 3e 00 00 00 80 5a 9e 51 3e 00 00 00 80
       0.21035129 -0.0 0.20470563 -0.0
000180 8a 20 38 be 18 3a 6b 3e 00 00 00 00 84 8c 15 3e
       -0.17981163 0.2297138 0.0 0.14604384
000190 de e4 1f be 00 00 00 80 8c a4 4e 3e 60 91 39 3e
       -0.1561465 -0.0 0.20179957 0.18121862
0001a0 00 00 00 00 90 8c c2 3d d8 ad bf bd fc eb 34 be
       0.0 0.094994664 -0.0935933 -0.17668146
0001b0 04 29 5a be 70 ce 6d 3d 00 00 00 00 d2 b6 03 3e
       -0.21304709 0.058058202 0.0 0.12862709
0001c0 de dc 10 3e f2 b3 12 3e 16 34 5f 3e 5c aa 7a be
       0.14146754 0.14326456 0.21797213 -0.2447905
0001d0 40 ed b0 3d a6 7b 69 be 70 b7 2a 3e 00 00 00 80
       0.08639002 -0.22801074 0.16671538 -0.0
0001e0 28 c2 09 3e 00 00 00 00 00 00 00 80 00 00 00 80
       0.13452971 0.0 -0.0 -0.0
0001f0 00 5b 56 3e 40 96 6b bd 6c 3c e5 3d 90 0e 35 be
       0.20933151 -0.057516336 0.11193165 -0.17681336
000200 7c 3b 33 3e 00 00 00 80 88 1b 0f be c6 e4 76 3e
       0.1750316 -0.0 -0.13975346 0.24110708
000210 ba a3 5c 3e 00 00 00 80 00 00 00 00 00 00 00 80
       0.21546832 -0.0 0.0 -0.0
000220 6c 7a 36 3e a2 e9 48 be 78 7e 0e be 00 00 00 80
       0.17820138 -0.19620374 -0.13915431 -0.0
000230 c4 96 3a be 4c 35 13 be ac 1f 24 be ea 97 08 3e
       -0.18221575 -0.143758 -0.16027707 0.133392
000240 00 00 00 00 00 00 00 80 00 00 00 00 c2 d8 1d be
       0.0 -0.0 0.0 -0.15414718
000250 00 00 00 00 ca 7f 09 be b8 c5 43 be 12 91 54 be
       0.0 -0.13427654 -0.19118392 -0.20758465
000260 60 0d 7d be b6 2f 71 be 82 7a 7b 3e 00 00 00 80
       -0.24712133 -0.23553357 0.24558452 -0.0
000270 00 00 00 00 bc c4 fa bd 00 00 00 00 00 00 00 00
       0.0 -0.12244555 0.0 0.0
000280 90 93 c7 3d 00 00 00 80 00 00 00 00 b6 fd 30 3e
       0.09744942 -0.0 0.0 0.17284283
000290 b2 29 48 be 56 77 77 be 00 00 00 00 1e 82 66 3e
       -0.19547155 -0.24166617 0.0 0.22510573
0002a0 80 1c 48 be 54 9e a6 bd 74 83 b4 bd 4c 1d f2 3d
       -0.19542122 -0.081356674 -0.08814135 0.11821994
0002b0 0a c7 7e be f8 f8 c5 bd e8 b0 c6 bd 00 00 00 00
       -0.24880615 -0.09666628 -0.09701711 0.0
0002c0 6e ae 57 be 66 48 29 be f0 a1 bf bd 00 00 00 00
       -0.21062633 -0.16531524 -0.09357059 0.0
0002d0 f8 6f 4e be ec a2 2b be 4a 0e 5d be b4 c9 8a bd
       -0.201599 -0.16761369 -0.21587482 -0.06776753
0002e0 00 00 00 00 50 34 c3 3d 00 00 00 00 72 62 3f be
       0.0 0.09531462 0.0 -0.18689898
0002f0 70 7b 74 be 00 00 00 80 00 00 00 80 00 00 00 00
       -0.23875213 -0.0 -0.0 0.0
000300 00 6f 84 bd 36 b7 16 3e a0 00 52 be 06 da 73 3e
       -0.06466484 0.14718327 -0.20508051 0.23813638
000310 d6 04 61 3e 84 8f 0a 3e 1a a4 0f be 02 40 6a 3e
       0.21974501 0.1353131 -0.14027444 0.2287598
000320 90 11 9e bd 44 64 2b 3e 8a ff 32 be b0 36 36 be
       -0.077181935 0.16737467 -0.17480293 -0.17794299
000330 00 00 00 00 78 87 75 bd 64 9d 85 3d 80 df 7b 3e
       0.0 -0.059943646 0.065241605 0.24596977
000340 48 12 64 3e a4 0e 31 be 00 00 00 80 a8 53 f5 bd
       0.22272599 -0.17290741 -0.0 -0.11978847
000350 34 72 ff bd 12 fc 27 3e 98 ee 21 3e e8 0b 72 3e
       -0.124729544 0.16404751 0.15813673 0.23637354
000360 66 58 07 3e 18 9b ea 3d 40 96 c6 bd 00 00 00 80
       0.13217315 0.11455363 -0.09696627 -0.0
000370 00 00 00 00 00 6c aa bd 00 00 00 00 00 00 00 00
       0.0 -0.083213806 0.0 0.0
000380 00 00 00 80 00 00 00 00 02 8f 53 3e 84 fe 5b 3e
       -0.0 0.0 0.20660022 0.21483809
000390 00 00 00 80 00 00 00 80 00 00 00 80 78 72 7f be
       -0.0 -0.0 -0.0 -0.2494601
0003a0 14 12 e5 bd d0 e1 a3 3d 94 33 33 be 00 00 00 00
       -0.11185089 0.08002055 -0.17500144 0.0
0003b0 de c8 2c 3e 52 06 58 be 38 0a c4 bd 88 04 22 be
       0.168735 -0.21096161 -0.095722616 -0.15822041
0003c0 58 d5 95 3d 00 00 00 00 bc 03 77 3e 00 00 00 80
       0.07316083 0.0 0.24122518 -0.0
0003d0 00 00 00 00 5c ed f5 3d c4 34 00 3e 40 3b 4e be
       0.0 0.12008163 0.12520128 -0.2013979
0003e0 00 00 00 80 00 00 00 80 b8 1e 84 3d 76 06 19 3e
       -0.0 -0.0 0.06451172 0.14943871
0003f0 2c ac 41 be f2 b5 02 3e 00 00 00 80 54 f7 f4 bd
       -0.18913335 0.12764719 -0.0 -0.119612366

layers.1.2.weight f4 [16]
000000 00 00 80 3f 00 00 80 3f 00 00 80 3f 00 00 80 3f
       1.0 1.0 1.0 1.0
000010 00 00 80 3f 00 00 80 3f 00 00 80 3f 00 00 80 3f
       1.0 1.0 1.0 1.0
000020 00 00 80 3f 00 00 80 3f 00 00 80 3f 00 00 80 3f
       1.0 1.0 1.0 1.0
000030 00 00 80 3f 00 00 80 3f 00 00 80 3f 00 00 80 3f
       1.0 1.0 1.0 1.0

layers.1.2.bias f4 [16]
000000 00 00 00 00 00 00 00 00 00 00 00 00 00 00 00 00
       0.0 0.0 0.0 0.0
000010 00 00 00 00 00 00 00 00 00 00 00 00 00 00 00 00
       0.0 0.0 0.0 0.0
000020 00 00 00 00 00 00 00 00 00 00 00 00 00 00 00 00
       0.0 0.0 0.0 0.0
000030 00 00 00 00 00 00 00 00 00 00 00 00 00 00 00 00
       0.0 0.0 0.0 0.0

layers.1.2.running_mean f4 [16]
000000 00 00 00 00 00 00 00 00 00 00 00 00 00 00 00 00
       0.0 0.0 0.0 0.0
000010 00 00 00 00 00 00 00 00 00 00 00 00 00 00 00 00
       0.0 0.0 0.0 0.0
000020 00 00 00 00 00 00 00 00 00 00 00 00 00 00 00 00
       0.0 0.0 0.0 0.0
000030 00 00 00 00 00 00 00 00 00 00 00 00 00 00 00 00
       0.0 0.0 0.0 0.0

layers.1.2.running_var f4 [16]
000000 00 00 80 3f 00 00 80 3f 00 00 80 3f 00 00 80 3f
       1.0 1.0 1.0 1.0
000010 00 00 80 3f 00 00 80 3f 00 00 80 3f 00 00 80 3f
       1.0 1.0 1.0 1.0
000020 00 00 80 3f 00 00 80 3f 00 00 80 3f 00 00 80 3f
       1.0 1.0 1.0 1.0
000030 00 00 80 3f 00 00 80 3f 00 00 80 3f 00 00 80 3f
       1.0 1.0 1.0 1.0

layers.2.0.weight f4 [16, 1, 5, 5]
000000 40 9c c3 bd e3 82 10 3e 16 d9 d9 3d 79 0d 25 3e
       -0.09551287 0.1411243 0.10637109 0.1611842
000010 71 61 39 3e 00 00 00 80 9b 02 27 be 61 8c 3b 3e
       0.18103577 -0.0 -0.16309588 0.18315269
000020 00 00 00 80 bf d9 32 be 2d 03 28 3e 00 00 00 80
       -0.0 -0.17465876 0.16407461 -0.0
000030 ea e1 f5 3d 6a 46 d2 3d 00 00 00 80 00 00 00 80
       0.1200598 0.10267337 -0.0 -0.0
000040 b2 3c cc 3d 73 e8 46 be 12 5a e8 3d 00 00 00 80
       0.09972514 -0.1942461 0.113453045 -0.0
000050 29 df 00 3e 00 00 00 00 21 c2 0a 3e f3 64 af bd
       0.12585129 0.0 0.13550617 -0.085641764
000060 e0 28 3d be cd e5 2c be 00 00 00 00 00 00 00 00
       -0.18472624 -0.16884537 0.0 0.0
000070 ea 62 ae 3d bf 33 16 3e 00 00 00 80 93 5f 02 3e
       0.0851496 0.14668177 -0.0 0.12731771
000080 24 ef 07 be a0 b6 b7 bd 0f 35 1a 3e b1 dd 12 3e
       -0.13274819 -0.0897038 0.15059303 0.14342381
000090 e3 b1 d9 bd 6a a5 95 bd 00 00 00 80 00 00 00 80
       -0.10629632 -0.07306941 -0.0 -0.0
0000a0 03 28 b3 bd 9b 76 45 be 8d 7d 49 3e 60 a6 11 be
       -0.08747866 -0.19283526 0.196768 -0.14223623
0000b0 00 00 00 80 a6 12 20 be d6 91 d0 3d 00 00 00 80
       -0.0 -0.15632114 0.10184066 -0.0
0000c0 56 8b dc 3d 40 28 9b bd 65 0c 09 3e 90 15 94 bd
       0.10768764 -0.075760365 0.13383634 -0.07230675
0000d0 b5 bd 10 be 00 00 00 80 fa 8c d9 bd 2d c9 06 3e
       -0.14134867 -0.0 -0.10622592 0.1316268
0000e0 3c a1 09 be f9 b3 48 3e 32 02 99 3d 00 00 00 80
       -0.13440412 0.19599904 0.07471122 -0.0
0000f0 6f 6e 3d 3e 00 00 00 80 b8 19 21 be 00 00 00 00
       0.18499158 -0.0 -0.15732467 0.0
000100 00 00 00 00 00 00 00 80 00 00 00 00 d0 76 85 bd
       0.0 -0.0 0.0 -0.06516802
000110 aa d2 9f 3d 96 f6 05 be a3 24 24 be 3b 2a 45 be
       0.07803853 -0.13082346 -0.16029601 -0.19254391
000120 b2 b0 a3 3d 00 00 00 80 22 22 e4 3d 9d 59 cf bd
       0.07992686 -0.0 0.11139323 -0.10124514
000130 26 60 05 be c2 50 f9 3d 00 00 00 00 68 ed 3a be
       -0.13024959 0.121736065 0.0 -0.18254626
000140 de 24 b3 3d 1d 70 20 be bf 1e 2a 3e 62 93 2b be
       0.08747266 -0.15667768 0.16613291 -0.16755441
000150 82 0b f5 3d e3 3a 40 be 2d 53 1c be fe 2e a5 3d
       0.119650856 -0.18772464 -0.15266104 0.08065604
000160 3f e1 15 3e 00 00 00 80 a3 ea ff bd b2 68 e6 3d
       0.14636706 -0.0 -0.12495925 0.11250438
000170 00 00 00 00 00 00 00 00 00 00 00 80 00 00 00 00
       0.0 0.0 -0.0 0.0
000180 41 f1 30 3e 4a c1 cf 3d 00 00 00 80 7c d1 75 3d
       0.17279531 0.10144289 -0.0 0.060014233
000190 e9 18 1d 3e 54 ba 68 3d dd b4 ca bd 34 ed 09 be
       0.15341534 0.05681832 -0.09897778 -0.13469392
0001a0 25 ec 1c be 00 00 00 80 7a df e0 3d 14 3f 98 bd
       -0.15324457 -0.0 0.10980125 -0.07433906
0001b0 a2 d5 d7 3d 50 93 14 be f5 8b 1a be bb b9 04 3e
       0.10538794 -0.1450932 -0.15092452 0.12961476
0001c0 00 00 00 00 00 00 00 00 00 00 00 80 d7 eb 41 be
       0.0 0.0 -0.0 -0.18937622
0001d0 b6 8d 92 bd 00 00 00 00 00 00 00 80 00 00 00 80
       -0.071559355 0.0 -0.0 -0.0
0001e0 61 53 31 3e 7c 70 71 3d 00 00 00 00 92 17 c2 3d
       0.17316963 0.058945164 0.0 0.09477152
0001f0 f6 2d f5 3d 00 00 00 00 42 e7 a6 3d 00 00 00 80
       0.11971657 0.0 0.08149578 -0.0
000200 3a f8 2f be 73 a2 22 3e 76 f9 98 bd e3 43 10 3e
       -0.17184535 0.15882282 -0.07469456 0.14088397
000210 00 00 00 80 00 00 00 00 7d 06 b5 bd 8f 7d 14 3e
       -0.0 0.0 -0.08839128 0.14501022
000220 00 00 00 00 aa 74 06 be 37 31 9b bd 01 3a 1f 3e
       0.0 -0.13130441 -0.07577746 0.1554947
000230 23 9e 17 3e 3e d4 14 be 53 d7 03 3e 00 00 00 00
       0.14806418 -0.14534089 0.12875108 0.0
000240 31 5e 11 3e 00 00 00 80 a9 71 3b 3e 0d 8a 10 3e
       0.14196087 -0.0 0.18305077 0.14115162
000250 3a 4c ee bd 00 00 00 00 f5 de 21 be e2 97 8e 3d
       -0.11635633 0.0 -0.15807708 0.06962563
000260 53 c4 a8 bd 03 87 1e be 85 b4 03 be 7d d8 0a 3e
       -0.08240571 -0.1548119 -0.12861831 0.13559146
000270 4a 7e c5 3d 3a c5 17 be 00 00 00 00 92 21 20 be
       0.09643228 -0.1482133 0.0 -0.15637806
000280 00 00 00 00 42 6e cc 3d 15 3a 07 be 00 00 00 80
       0.0 0.099819675 -0.1320575 -0.0
000290 9d af e8 bd 4a 5e f1 bd 00 00 00 00 21 fb 17 3e
       -0.113616206 -0.11785562 0.0 0.14841892
0002a0 00 00 00 80 71 ac 12 3e 05 43 30 3e 00 00 00 80
       -0.0 0.14323594 0.17213066 -0.0
0002b0 b7 64 c5 bd 00 00 00 00 82 92 94 3d f6 f2 8a 3d
       -0.096383505 0.0 0.07254507 0.06784622
0002c0 1a ae f4 bd f1 14 23 3e 46 3d 83 bd da fd b6 bd
       -0.1194727 0.15925957 -0.06408171 -0.08935137
0002d0 00 00 00 80 39 7d 2a 3e 00 00 00 80 19 c1 49 3e
       -0.0 0.16649331 -0.0 0.19702567
0002e0 c0 c8 25 be 00 00 00 00 00 00 00 80 71 48 22 3e
       -0.16189861 0.0 -0.0 0.15847947
0002f0 00 00 00 00 00 00 00 80 00 00 00 80 00 00 00 00
       0.0 -0.0 -0.0 0.0
000300 b6 ee 19 be f2 2b d4 3d 20 b8 1b be ee 98 cf 3d
       -0.15032467 0.103599444 -0.15206957 0.10136591
000310 00 00 00 00 00 00 00 00 c6 18 1e be f4 a3 85 bd
       0.0 0.0 -0.15439138 -0.06525412
000320 66 14 e6 3d 00 00 00 00 b6 af 9c 3d 92 5a c2 3d
       0.112343594 0.0 0.07650702 0.09489931
000330 00 00 00 00 50 80 0f be cb 47 13 3e b3 64 07 3e
       0.0 -0.14013791 0.14382856 0.13222007
000340 00 00 00 00 00 00 00 00 ce 8b d2 3d 00 00 00 00
       0.0 0.0 0.10280572 0.0
000350 f1 11 3a 3e b0 f0 21 be fb c9 41 be 00 00 00 00
       0.18170907 -0.15814471 -0.18924706 0.0
000360 20 6c 33 be 5f 6c 3d 3e 0b b8 2a be fa 2a 9b 3d
       -0.17521715 0.18498372 -0.1667177 0.075765565
000370 dd 4d 17 3e 20 66 67 bd 00 00 00 80 00 00 00 00
       0.14775796 -0.05649388 -0.0 0.0
000380 ea 1e 19 be 39 d5 24 3e 9a 44 e0 bd d9 2f 2a 3e
       -0.14953199 0.16096963 -0.10950585 0.16619815
000390 00 00 00 00 00 00 00 00 74 76 66 3d 92 3c f1 3d
       0.0 0.0 0.05626531 0.11779131
0003a0 89 07 15 3e 00 00 00 80 21 a1 36 3e 63 f8 35 3e
       0.14553656 -0.0 0.17834903 0.17770533
0003b0 00 00 00 00 00 00 00 80 14 8e 79 bd 8a bb bb 3d
       0.0 -0.0 -0.060926512 0.091666296
0003c0 34 52 00 be 33 a5 21 3e 00 00 00 00 97 de f5 bd
       -0.12531358 0.15785675 0.0 -0.12005346
0003d0 00 00 00 80 1d ca ce bd c5 4a 3e be 3a 3e 03 be
       -0.0 -0.10097144 -0.1858321 -0.12816706
0003e0 00 00 00 80 00 00 00 00 27 4f e4 bd 23 de 14 be
       -0.0 0.0 -0.111479096 -0.14537863
0003f0 b9 7f 0e 3e 00 00 00 00 00 00 00 00 0b 53 0e be
       0.1391591 0.0 0.0 -0.13898866

layers.2.1.weight f4 [16, 16, 1, 1]
000000 00 00 00 80 9a 07 33 be a0 31 19 3e fe f0 4d be
       -0.0 -0.17483369 0.14960337 -0.20111462
000010 a8 90 f5 3d 04 a0 13 3e a4 e2 ea bd 00 00 00 00
       0.119904816 0.1441651 -0.114690095 0.0
000020 60 d0 53 be 86 9f 19 3e e0 8d b3 3d f8 3d 30 3e
       -0.20684958 0.1500226 0.08767295 0.17211139
000030 d4 46 00 be ae 5a 23 be c8 22 87 bd 4c 05 13 3e
       -0.12527019 -0.1595256 -0.06598431 0.1435749
000040 6c d8 c3 bd 00 00 00 80 f4 3b 85 bd 06 46 7b 3e
       -0.095627636 -0.0 -0.06505576 0.2453843
000050 6c d5 22 3e 20 6d 78 be 7a 1f 6f be ac 30 af 3d
       0.15901726 -0.24260378 -0.23351851 0.08554205
000060 9a cc 68 3e 32 bc 3d be 98 c3 02 be a2 0e 1b be
       0.227343 -0.18528822 -0.12769926 -0.151423
000070 a8 3a 96 bd ac 8c ac 3d 70 fe ad bd 00 00 00 80
       -0.073354065 0.084252685 -0.08495796 -0.0
000080 80 5e be bd 02 13 1f be 00 00 00 80 02 d1 0c be
       -0.09295368 -0.15534595 -0.0 -0.13751605
000090 e8 19 1c 3e 5c bc d9 bd ee 5c 16 be 00 00 00 00
       0.15244257 -0.1063163 -0.14683887 0.0
0000a0 40 8d 33 3e e2 f3 5d be 00 00 00 00 fc af 23 be
       0.17534351 -0.21675065 0.0 -0.15985101
0000b0 b8 49 d0 3d 78 2f dc 3d a2 20 7e 3e a0 85 ef 3d
       0.10170311 0.107512414 0.24817136 0.11695409
0000c0 62 b6 0e be 00 00 00 00 94 b9 80 3d 36 3d 72 3e
       -0.13936761 0.0 0.06285396 0.23656163
0000d0 f0 04 37 be 00 17 67 3e ce 4f 29 3e 00 00 00 80
       -0.17872977 0.22567368 0.1653435 -0.0
0000e0 00 00 00 80 54 d2 8c 3d 00 00 00 00 1c 0a d2 3d
       -0.0 0.068760544 0.0 0.102558345
0000f0 da 4e 71 be 36 a2 09 3e fc 29 8a bd 00 00 00 80
       -0.23565236 0.13440785 -0.06746289 -0.0
000100 00 00 00 00 94 25 f7 3d 32 e4 27 3e 04 78 d5 3d
       0.0 0.12067714 0.16395643 0.10423282
000110 f0 08 19 3e f8 f5 d9 3d 06 99 63 be 1e fc 05 be
       0.14944816 0.10642618 -0.22226343 -0.13084456
000120 1a 47 0e 3e 8c 88 af bd 00 00 00 80 b6 4a 51 be
       0.1389431 -0.08570966 -0.0 -0.20438656
000130 f8 59 0a 3e 78 4e a2 3d 72 3d 77 3e 9c b9 c0 3d
       0.13510883 0.07925123 0.24144533 0.09410402
000140 00 00 00 00 2c d3 30 3e ce 6d 3f 3e e8 09 c7 bd
       0.0 0.17268056 0.18694231 -0.09718686
000150 9e e4 1c be 80 eb 8d bd 42 75 02 be 7c a4 68 3e
       -0.15321586 -0.06929684 -0.12740043 0.22718996
000160 00 00 00 80 60 62 67 3d d0 70 6f be ce d0 5b 3e
       -0.0 0.056490302 -0.23382878 0.21466371
000170 14 91 e0 bd fe 6f 7c be e2 27 23 be 68 32 d4 3d
       -0.109651715 -0.24652097 -0.15933183 0.10361177
000180 be 2f 54 3e 00 00 00 00 34 68 0f be 00 00 00 00
       0.20721337 0.0 -0.14004594 0.0
000190 b8 81 94 bd 00 00 00 00 62 2b 55 be 30 f7 74 be
       -0.072513044 0.0 -0.2081733 -0.2392242
0001a0 90 f8 22 be ba 6e 4e be 5c a7 ff 3d 58 c7 0a 3e
       -0.15915132 -0.20159426 0.12483093 0.13552606
0001b0 00 00 00 00 30 ca 9f bd 00 00 00 00 d8 e4 68 bd
       0.0 -0.07802236 0.0 -0.056858867
0001c0 e8 f6 f2 bd 04 6b fa 3d d8 a0 79 3e e4 81 e8 3d
       -0.118635 0.12227443 0.24377763 0.113529
0001d0 98 6b cf bd 00 00 00 00 04 6c 36 be b0 d4 de 3d
       -0.10127944 0.0 -0.17814642 0.10880411
0001e0 e4 f7 76 3e a8 67 66 3e f8 d7 1a 3e 0a 14 78 be
       0.24118 0.22500479 0.15121448 -0.24226394
0001f0 da ed 2e be 00 00 00 00 bc e4 4f 3e 00 00 00 00
       -0.1708292 0.0 0.20302099 0.0
000200 60 d8 ef 3d 2c a9 e7 3d b0 eb e0 bd 62 64 05 3e
       0.11711192 0.11311564 -0.10982454 0.13026574
000210 e4 23 80 bd 48 a0 4d 3e 08 f8 fc bd 00 00 00 80
       -0.062568456 0.20080674 -0.12351996 -0.0
000220 cc 75 4d be 00 00 00 00 b4 35 c0 bd 8c 06 e3 bd
       -0.20064467 0.0 -0.09385243 -0.11085233
000230 aa 5a 04 be 44 ac 74 be ee 5e 31 3e 38 1f eb 3d
       -0.1292521 -0.23893839 0.17321369 0.11480564
000240 f0 24 c0 bd 24 69 85 bd 8a b5 69 3e 00 00 00 00
       -0.09382045 -0.065141946 0.22823158 0.0
000250 00 00 00 00 00 00 00 00 00 00 00 00 18 2c 45 3e
       0.0 0.0 0.0 0.19255102
000260 fa 6e 6c be b4 82 5c 3e 00 00 00 00 04 15 e0 bd
       -0.23089209 0.21534234 0.0 -0.109415084
000270 b4 aa 22 3e 3a f0 65 3e b4 1d e0 bd 00 00 00 80
       0.1588543 0.2245492 -0.109431654 -0.0
000280 6e 30 23 be 00 00 00 80 94 22 bf bd 1c 5e cb 3d
       -0.15936443 -0.0 -0.09332767 0.09930059
000290 20 ab bc bd 8a 5e 2f 3e a8 e9 fe bd 02 40 35 be
       -0.09212327 0.17125908 -0.1244691 -0.17700198
0002a0 78 30 20 be 78 f3 69 bd 64 9b c2 3d 00 00 00 80
       -0.1564349 -0.057116956 0.09502295 -0.0
0002b0 00 51 22 be 00 00 00 00 e4 4a 54 be 2c d0 c7 3d
       -0.15851212 0.0 -0.20731694 0.097565025
0002c0 78 ae 60 3e 00 00 00 80 0c 03 e9 3d 00 00 00 00
       0.21941555 -0.0 0.11377534 0.0
0002d0 d6 bb 63 be 70 b0 4f 3e 92 14 3c be 00 00 00 80
       -0.22239622 0.2028215 -0.18367222 -0.0
0002e0 1a e5 34 3e 54 1f af bd a2 d2 65 3e 20 e1 d6 bd
       0.1766552 -0.08550897 0.22443631 -0.10492158
0002f0 60 0c 65 3e 88 b3 cb bd 3e e8 2f 3e 34 67 cf 3d
       0.22368002 -0.09946352 0.17178437 0.10127106
000300 00 00 00 80 7a 7c 3e 3e b4 9e 17 3e f0 29 2a 3e
       -0.0 0.18602172 0.14806634 0.1661756
000310 2c b7 95 bd 4c 7a 56 be 46 87 6a 3e f8 f9 85 bd
       -0.07310328 -0.2094509 0.22903165 -0.065418184
000320 00 00 00 00 2c ba 46 3e 56 09 31 be 00 00 00 80
       0.0 0.19406956 -0.17288718 -0.0
000330 00 00 00 00 6c 99 ee bd 00 00 00 80 d8 4e 51 3e
       0.0 -0.11650357 -0.0 0.20440233
000340 12 36 53 be 00 00 00 00 00 00 00 00 00 00 00 80
       -0.20626095 0.0 0.0 -0.0
000350 b0 3d c8 3d 4a e9 75 be 24 9a ca bd c4 00 a0 bd
       0.09777391 -0.24014774 -0.09892681 -0.07812646
000360 da 06 2d be f4 e5 29 3e 46 c4 5d 3e c4 11 e9 3d
       -0.16897145 0.16591626 0.21656904 0.11380342
000370 e2 00 76 3e 00 00 00 80 38 18 21 be 64 49 02 3e
       0.24023774 -0.0 -0.15731895 0.12723309
000380 ac fc f3 bd 00 00 00 80 dc 66 c0 bd ac 7c dd bd
       -0.11913428 -0.0 -0.09394619 -0.10814795
000390 36 77 23 be 10 65 ac 3d ea 50 5c 3e f0 cc d7 bd
       -0.15963444 0.08417714 0.21515241 -0.105371356
0003a0 00 00 00 80 2c 03 fd bd 3a 87 33 be bc 38 24 be
       -0.0 -0.123541206 -0.17532054 -0.16037267
0003b0 00 00 00 00 0c 76 55 3e 10 44 9b 3d 42 be 15 be
       0.0 0.20845813 0.07581341 -0.14623359
0003c0 c8 3c 68 be c2 bb 51 3e 00 00 00 00 0a 6d 68 be
       -0.22679436 0.2048178 0.0 -0.22697845
0003d0 48 4d b7 bd a6 19 7b be ee 09 04 be 00 00 00 00
       -0.08950287 -0.24521503 -0.12894413 0.0
0003e0 b0 31 ec 3d 00 00 00 80 3e 97 54 be 1a 00 38 be
       0.11532915 -0.0 -0.2076082 -0.17968789
0003f0 18 f9 1f 3e 90 2a 7b be 2c 66 dc bd a6 c6 50 3e
       0.15622365 -0.24527955 -0.10761675 0.20388278

layers.2.2.weight f4 [16]
000000 00 00 80 3f 00 00 80 3f 00 00 80 3f 00 00 80 3f
       1.0 1.0 1.0 1.0
000010 00 00 80 3f 00 00 80 3f 00 00 80 3f 00 00 80 3f
       1.0 1.0 1.0 1.0
000020 00 00 80 3f 00 00 80 3f 00 00 80 3f 00 00 80 3f
       1.0 1.0 1.0 1.0
000030 00 00 80 3f 00 00 80 3f 00 00 80 3f 00 00 80 3f
       1.0 1.0 1.0 1.0

layers.2.2.bias f4 [16]
000000 00 00 00 00 00 00 00 00 00 00 00 00 00 00 00 00
       0.0 0.0 0.0 0.0
000010 00 00 00 00 00 00 00 00 00 00 00 00 00 00 00 00
       0.0 0.0 0.0 0.0
000020 00 00 00 00 00 00 00 00 00 00 00 00 00 00 00 00
       0.0 0.0 0.0 0.0
000030 00 00 00 00 00 00 00 00 00 00 00 00 00 00 00 00
       0.0 0.0 0.0 0.0

layers.2.2.running_mean f4 [16]
000000 00 00 00 00 00 00 00 00 00 00 00 00 00 00 00 00
       0.0 0.0 0.0 0.0
000010 00 00 00 00 00 00 00 00 00 00 00 00 00 00 00 00
       0.0 0.0 0.0 0.0
000020 00 00 00 00 00 00 00 00 00 00 00 00 00 00 00 00
       0.0 0.0 0.0 0.0
000030 00 00 00 00 00 00 00 00 00 00 00 00 00 00 00 00
       0.0 0.0 0.0 0.0

layers.2.2.running_var f4 [16]
000000 00 00 80 3f 00 00 80 3f 00 00 80 3f 00 00 80 3f
       1.0 1.0 1.0 1.0
000010 00 00 80 3f 00 00 80 3f 00 00 80 3f 00 00 80 3f
       1.0 1.0 1.0 1.0
000020 00 00 80 3f 00 00 80 3f 00 00 80 3f 00 00 80 3f
       1.0 1.0 1.0 1.0
000030 00 00 80 3f 00 00 80 3f 00 00 80 3f 00 00 80 3f
       1.0 1.0 1.0 1.0

layers.3.weight f4 [32, 16, 1, 1]
000000 46 33 6a 3e 06 2f 5a be 5a 2f 28 be 00 75 65 3d
       0.22871122 -0.21307 -0.16424313 0.056019783
000010 02 d9 7d 3e 82 e7 3c be 7c f5 15 3e 44 e9 8d bd
       0.24789813 -0.18447688 0.14644426 -0.069292575
000020 7c f0 bb 3d 00 00 00 00 a8 5d e8 3d 00 00 00 80
       0.09176728 0.0 0.113459885 -0.0
000030 7c 66 1c 3e 4c 12 c4 3d ea 6e 39 3e 4c 0e 14 be
       0.1527347 0.09573802 0.18108717 -0.14458579
000040 ea 5d 04 3e a0 3d c8 bd 00 00 00 80 44 65 06 3e
       0.1292645 -0.09777379 -0.0 0.13124567
000050 42 fe 5b 3e 52 42 59 be 34 8f c4 3d 48 d7 b3 3d
       0.2148371 -0.21216705 0.09597626 0.08781296
000060 d6 0b 68 be 00 00 00 00 00 00 00 80 00 00 00 00
       -0.22660765 0.0 -0.0 0.0
000070 56 38 54 be 00 00 00 80 9e 25 7f be 00 00 00 00
       -0.20724615 -0.0 -0.24916694 0.0
000080 b2 57 48 3e 00 00 00 00 00 00 00 00 60 aa 2b 3e
       0.19564703 0.0 0.0 0.16764212
000090 e0 fc f0 3d 00 00 00 80 00 00 00 80 70 d6 3d 3e
       0.11766982 -0.0 -0.0 0.18538833
0000a0 32 6a 6c 3e 00 00 00 00 b4 7b bb 3d 72 f5 66 be
       0.23087385 0.0 0.09154454 -0.22554567
0000b0 32 40 37 3e 56 41 4d 3e 26 b5 2b be 84 20 09 be
       0.17895582 0.20044455 -0.16768321 -0.1339131
0000c0 84 69 8a 3d 80 c7 80 3d 00 00 00 80 50 25 5c be
       0.06758407 0.062880516 -0.0 -0.21498609
0000d0 d4 3b 4b be d6 47 5a be 00 00 00 80 76 cc 3d 3e
       -0.19847041 -0.21316466 -0.0 0.18535027
0000e0 10 82 64 bd 8c 90 a4 3d 7e 8b 32 be d8 13 f7 bd
       -0.0557881 0.08035383 -0.17436025 -0.12064332
0000f0 00 00 00 80 98 63 e6 3d 00 00 00 00 c8 76 ba bd
       -0.0 0.11249465 0.0 -0.09104687
000100 2e 38 66 be d8 af 6f 3d 78 26 9e 3d 9a 73 69 be
       -0.22482368 0.058517307 0.07722181 -0.22798005
000110 76 cc 39 3e d4 5d 96 bd 00 00 00 80 4c fe 7a be
       0.18144402 -0.07342115 -0.0 -0.24511069
000120 28 f2 6e bd e0 aa 8a 3d 00 00 00 80 38 2f db 3d
       -0.058336407 0.06770873 -0.0 0.10702366
000130 90 81 3b 3e 48 2a 14 be 08 96 f8 3d 2c 94 72 be
       0.18311143 -0.14469254 0.12137991 -0.23689336
000140 02 62 17 3e 00 00 00 00 46 f8 14 be ac 31 c8 3d
       0.14783481 0.0 -0.14547834 0.09775099
000150 2c b6 23 3e ac 82 74 be 20 8b 4d 3e f8 0f e1 bd
       0.15987462 -0.23877972 0.20072603 -0.10989374
000160 80 a8 1d be d2 ce 03 be 00 00 00 00 94 1f 08 3e
       -0.15396309 -0.12871864 0.0 0.13293296
000170 6c 9f 41 3e 4c c4 75 be a6 a6 35 3e 5c 5d 40 be
       0.18908471 -0.24000663 0.17739353 -0.18785614
000180 00 00 00 80 fc 41 2e be ba 81 70 3e d8 af 64 be
       -0.0 -0.17017359 0.23486987 -0.22332704
000190 d6 6d 18 be 84 4a 18 3e 00 00 00 80 ca 5e 74 3e
       -0.14885649 0.14872175 -0.0 0.23864284
0001a0 84 e6 0c 3e 2e 44 7c 3e e8 62 c3 3d ea 5e 07 3e
       0.1375981 0.24635383 0.09540349 0.132198
0001b0 a2 b0 75 be 00 00 00 00 fa 39 20 3e 18 00 2e 3e
       -0.23993161 0.0 0.15647116 0.16992223
0001c0 f0 91 21 be ca 6a 7e 3e 82 e5 31 be 00 00 00 00
       -0.15778327 0.24845424 -0.17372707 0.0
0001d0 ac f7 2c be e0 85 43 3e 70 bd d2 bd 4e 8d 15 be
       -0.16891354 0.19094038 -0.102900386 -0.14604685
0001e0 e6 52 33 be 42 0d 4e 3e 00 00 00 80 00 00 00 80
       -0.17512092 0.20122245 -0.0 -0.0
0001f0 64 9c ae bd 4c a1 e4 3d 6a 16 5b be 14 d5 6f 3e
       -0.08525923 0.111635774 -0.21395269 0.23421127
000200 60 a1 2d 3e 00 00 00 80 b0 75 70 3e fe 79 27 3e
       0.16956091 -0.0 0.23482394 0.1635513
000210 e0 07 88 bd 74 df d9 bd e2 83 54 be 74 b4 bf bd
       -0.06642127 -0.106383234 -0.20753434 -0.093605906
000220 00 00 00 00 00 00 00 00 9a 7c 0c be 74 ba 73 3e
       0.0 0.0 -0.13719407 0.23801595
000230 f8 14 59 3e 3e c6 1f be 00 00 00 80 32 b3 4b be
       0.21199405 -0.15602967 -0.0 -0.19892576
000240 fc b6 95 3d 00 00 00 80 d0 0a de 3d 00 00 00 80
       0.07310292 -0.0 0.10841906 -0.0
000250 e0 43 7a 3e 00 00 00 80 00 00 00 80 00 00 00 80
       0.24439955 -0.0 -0.0 -0.0
000260 ec 5e 53 be b0 e8 33 3e 3c 56 7c 3e 8a 64 05 be
       -0.20641679 0.17569232 0.24642271 -0.13026634
000270 a4 16 c3 3d fc 3d 5f 3e a0 57 bc bd 00 00 00 80
       0.09525803 0.21800989 -0.09196401 -0.0
000280 e2 08 48 3e e4 0d fd 3d 0a 53 40 be 56 92 28 be
       0.19534639 0.12356165 -0.18781677 -0.16462073
000290 00 00 00 00 00 00 00 00 8c 0a e9 bd 38 6b ca 3d
       0.0 0.0 -0.11378965 0.098837316
0002a0 4c 97 ae 3d 46 70 73 be 2a e4 0a be 20 3f 59 3e
       0.08524951 -0.23773298 -0.135636 0.21215487
0002b0 0c 98 ec 3d 00 00 00 80 f2 a6 23 be 00 00 00 80
       0.11552438 -0.0 -0.15981653 -0.0
0002c0 a0 84 0e 3e be f4 04 be 28 cb f2 3d 48 e3 68 be
       0.1391778 -0.12983987 0.11855155 -0.22742951
0002d0 44 26 59 be 00 00 00 80 d0 c0 dc bd 58 46 59 3e
       -0.21206003 -0.0 -0.107789636 0.2121824
0002e0 00 00 00 00 40 ca 1e 3e d8 5d 3f 3e 6c 96 da bd
       0.0 0.1550684 0.18688142 -0.10673222
0002f0 ac 54 38 3e a0 04 5f be ec f3 7e be 60 a2 54 be
       0.1800105 -0.21779108 -0.24897736 -0.20765066
000300 5c 30 ec 3d 26 61 52 3e a2 50 1b 3e f4 3e 50 3e
       0.11532661 0.20544872 0.15167478 0.20336515
000310 f4 b9 bc 3d 40 a9 97 bd 00 00 00 00 fe c9 41 be
       0.09215155 -0.07405329 0.0 -0.1892471
000320 a0 d1 c1 3d b4 89 eb 3d 00 00 00 80 ec 52 3c be
       0.09463811 0.11500874 -0.0 -0.18391007
000330 00 00 00 80 b8 c7 59 3e 48 12 b7 bd 54 e0 3f 3e
       -0.0 0.21267593 -0.08939034 0.18737918
000340 66 b9 5c be 3a 05 37 3e a4 ac 23 be 90 8d 7c bd
       -0.21555099 0.17873088 -0.15983826 -0.061658442
000350 cc 16 cc bd 54 bb 54 3e 98 24 3b 3e 06 06 52 3e
       -0.09965286 0.20774585 0.18275678 0.2051011
000360 2c 06 55 3e 84 f4 ae bd a8 65 8e bd 00 00 00 80
       0.20803136 -0.085427314 -0.06952983 -0.0
000370 e0 9b 91 3d ec 09 ff bd c0 9c a6 3d ae 75 28 3e
       0.07109809 -0.12453064 0.081353664 0.16451141
000380 00 00 00 00 3c f3 c3 bd 4e e5 73 3e 66 36 60 3e
       0.0 -0.09567878 0.23817942 0.21895751
000390 00 00 00 00 00 00 00 00 2a 80 60 be 00 00 00 80
       0.0 0.0 -0.2192389 -0.0
0003a0 0e ec 69 3e 00 00 00 80 a8 1c 6a 3d 00 00 00 80
       0.22843954 -0.0 0.057156235 -0.0
0003b0 00 00 00 80 a0 0a 91 bd 94 8c aa bd 10 d3 52 3e
       -0.0 -0.07082105 -0.083275944 0.20588326
0003c0 aa 75 26 3e 44 e7 d4 3d 00 00 00 80 80 64 c5 3d
       0.16255823 0.10395673 -0.0 0.096383095
0003d0 cc ed fa 3d 00 00 00 00 38 70 3a be a8 7b 87 bd
       0.122523874 0.0 -0.1820687 -0.066153824
0003e0 60 d8 87 3d 34 52 9e bd dc e6 17 3e b6 6c 51 be
       0.06633067 -0.07730523 0.1483416 -0.20451626
0003f0 42 50 47 be 00 00 00 00 1a c7 79 3e 58 85 be bd
       -0.1946421 0.0 0.24392357 -0.09302777

layers.5.0.weight f4 [32, 1, 3, 3]
000000 82 fd 36 3e 4f 5e 9b be 40 c9 67 be 02 ab 5d 3e
       0.17870143 -0.3034539 -0.22635365 0.21647266
000010 8d 4e a9 3e 9e 7c 2f 3e 90 4a 33 be 3a 5e 81 be
       0.33067742 0.17137381 -0.17508912 -0.25267202
000020 4e e1 3b 3e fa 93 6b 3e c0 0c 15 be 93 64 32 be
       0.18347666 0.23005667 -0.14555645 -0.17421179
000030 00 32 b5 bd 9c c6 e5 bd 38 c7 46 be ff 32 80 3e
       -0.08847427 -0.11219522 -0.19411933 0.25038907
000040 be 48 5c be db f4 2e be 16 b7 43 3e 00 00 00 00
       -0.21512124 -0.17085592 0.1911281 0.0
000050 e7 ba a8 3e 2d 0b 93 3e 76 e4 5d 3e cd ce 80 3e
       0.32955095 0.28719464 0.21669182 0.25157776
000060 92 ea 75 3e 50 b8 d2 3d 8a c5 37 3e e2 3a 2f 3e
       0.24015263 0.10289061 0.17946449 0.17112306
000070 d6 4f 8f be e7 90 9f be b2 cf 0a 3e 00 00 00 00
       -0.27990597 -0.3116524 0.13555792 0.0
000080 f8 9e 68 3d e2 53 41 3e b7 c5 a8 3e 82 09 61 3e
       0.05679223 0.18879655 0.32963344 0.21976283
000090 22 24 28 3e 00 00 00 00 92 d2 2e 3e 00 00 00 80
       0.16420034 0.0 0.17072514 -0.0
0000a0 00 00 00 80 00 00 00 00 68 74 7d bd 76 5a 6f be
       -0.0 0.0 -0.06187859 -0.23374352
0000b0 00 00 00 00 dd a8 a9 3e 51 aa 9a 3e 4b 62 7f be
       0.0 0.33136645 0.30208066 -0.2493984
0000c0 00 00 00 00 ec ff ce bd 00 00 00 80 da ef 40 3e
       0.0 -0.10107407 -0.0 0.18841496
0000d0 9b cf 8f be d7 14 86 3e 35 09 a1 3e 00 00 00 80
       -0.28088078 0.26187775 0.31452337 -0.0
0000e0 00 00 00 00 76 1d 1d 3e 08 8f 2e be 9e 40 78 3e
       0.0 0.1534327 -0.1704675 0.242434
0000f0 e0 48 16 3e d4 87 8b be b0 ea 81 bd ed 1a a1 3e
       0.14676237 -0.27252066 -0.06343591 0.31465855
000100 00 00 00 80 eb 0e 53 be e8 6e 02 3e 00 00 00 80
       -0.0 -0.2061116 0.1273762 -0.0
000110 4e 79 4d be 84 8d 9c 3d 66 eb bc bd cb e2 00 be
       -0.20065805 0.076441795 -0.09224586 -0.12586515
000120 3b 1c 92 3e d4 da 9e bd e3 26 5c be 79 bf 87 3e
       0.28537163 -0.07756582 -0.21499209 0.2651327
000130 9d c6 a2 3e 3c 8f fb 3d c5 f5 86 3e 9a 3c 4c 3e
       0.31792155 0.12283179 0.26359382 0.19944993
000140 ab 88 20 be 86 07 78 3e cc 55 c3 bd 8e 88 51 be
       -0.15677135 0.2422162 -0.09537849 -0.20462248
000150 00 00 00 80 1e 4e 21 be 00 00 00 00 46 78 f4 bd
       -0.0 -0.15752456 0.0 -0.11937003
000160 aa 9f 7d 3e 12 68 aa be e6 bf 14 be 2e 0e 30 3e
       0.24767938 -0.33282524 -0.14526328 0.17192909
000170 57 fb a3 be 00 00 00 00 36 7b 7c 3e 6a b9 75 3e
       -0.32027695 0.0 0.24656376 0.23996511
000180 b8 77 13 be f8 90 25 be 82 06 44 3e e3 72 77 be
       -0.14401138 -0.16168582 0.19143108 -0.2416492
000190 00 00 00 80 3d db 81 3e 24 76 86 3d c0 29 77 3d
       -0.0 0.25362578 0.06565502 0.06034255
0001a0 d7 ca a7 3e 18 78 65 bd 88 b7 7f be 6b 1d 20 be
       0.32771942 -0.056022733 -0.24972355 -0.15636222
0001b0 b2 30 1a 3e ee 26 3c be 7c 45 f2 bd 01 c1 8c 3e
       0.15057638 -0.18374225 -0.11829659 0.27491
0001c0 22 ea 04 3e 43 16 8c 3e b8 f5 9b be c7 14 8e be
       0.1297994 0.27360734 -0.30460906 -0.27750227
0001d0 6b 62 81 3e a4 2d c8 3d 5a ea 67 3e 2c 9c af 3d
       0.252704 0.0977433 0.22647992 0.08574709
0001e0 d4 82 8f be e2 15 59 3e 93 25 45 be d3 07 a1 3e
       -0.280295 0.21199754 -0.19252615 0.31451282
0001f0 dc 3d 98 bd e5 80 87 3e e1 8a 8e 3e 28 28 65 3d
       -0.07433674 0.26465526 0.2784033 0.0559465
000200 00 00 00 00 90 66 ac bd a2 2d 65 3e ec d9 8b 3d
       0.0 -0.08418 0.22380689 0.06828675
000210 9b 10 61 be f2 cd 07 3e bc 16 a4 bd 0e f1 2c 3e
       -0.2197899 0.13262156 -0.08012149 0.1688883
000220 40 30 32 be 3a 34 60 3e e3 a6 91 3e 2c 91 b6 3d
       -0.17401218 0.21894923 0.28447637 0.08914408
000230 af 63 85 3e 00 00 00 00 d3 aa 80 be 4c 76 f1 bd
       0.26052615 0.0 -0.2513033 -0.117901415
000240 5b 58 a7 be 32 20 7d 3e 36 4d 40 3e be 14 22 be
       -0.32684597 0.24719313 0.18779454 -0.15828225
000250 36 27 c1 bd 72 da a6 be 84 6b f6 3d 2c e3 88 be
       -0.09431307 -0.32588536 0.12032226 -0.26735818
000260 75 30 92 3e 5c 17 ff 3d 4e 70 7e be 46 b0 33 3e
       0.28552595 0.12455627 -0.24847528 0.17547712
000270 90 dc 86 be 3e 33 0d 3e 36 2b 29 3e 72 06 74 3e
       -0.2634015 0.13789079 0.1652039 0.23830584
000280 6a 17 1d 3e 16 5b 35 3e 00 00 00 80 00 00 00 00
       0.15340963 0.17710528 -0.0 0.0
000290 30 43 f2 bd 00 00 00 80 72 38 6c 3e ee 2c 4d 3e
       -0.11829221 -0.0 0.23068407 0.2003667
0002a0 0c 01 96 3d 00 00 00 80 9d 6a 9c 3e 58 b8 7e bd
       0.073244184 -0.0 0.3055009 -0.062187523
0002b0 00 00 00 00 00 00 00 80 23 77 82 3e 9e be 78 be
       0.0 -0.0 0.2548152 -0.24291465
0002c0 80 da 75 bd 32 0e 4e 3e 38 3f 31 be 70 67 7c be
       -0.06002283 0.20122603 -0.17309272 -0.24648833
0002d0 00 00 00 80 00 00 00 00 46 10 7f be 4c 4c c3 3d
       -0.0 0.0 -0.24908552 0.09536037
0002e0 e9 aa 83 3e 93 40 0b be f0 1f bc bd cc 0a f9 3d
       0.25716332 -0.13598852 -0.09185779 0.121602625
0002f0 8e 60 00 be 80 5e a9 bd 32 c2 8c be 8c 4b 9f 3d
       -0.12536833 -0.082699776 -0.2749191 0.07778081
000300 16 46 2b be 00 00 00 00 b9 b0 8b 3e 93 62 45 be
       -0.16725954 0.0 0.27283266 -0.19275884
000310 43 ee 74 be 04 22 ce 3d 2b a2 43 be 06 6a 59 3e
       -0.23919015 0.10065082 -0.19104831 0.21231851
000320 d2 ca 1f 3e e3 3a 98 be ea a4 59 3e a4 d4 de 3d
       0.15604714 -0.29732427 0.21254316 0.10880402
000330 46 c8 79 3e 26 70 f7 bd b5 96 a2 3e fa 2c 46 3e
       0.24392805 -0.120819375 0.31755605 0.19353095
000340 94 6a de 3d 20 b4 06 be 00 00 00 00 2b 93 a3 3e
       0.10860172 -0.1315465 0.0 0.31948218
000350 5b 1e 43 be 00 00 00 80 d0 b0 14 3e 8b 35 4f be
       -0.19054548 -0.0 0.14520574 -0.20235269
000360 46 ce 35 be 02 cc 70 3e 00 00 00 00 c3 4b 9d 3e
       -0.17754468 0.23515323 0.0 0.30721864
000370 d6 2e b0 bd 90 80 b8 3d e2 e8 68 3e 46 55 79 3e
       -0.08602683 0.09008896 0.22745088 0.24348935
000380 f0 cc ff 3d 00 00 00 00 fc 52 bb bd 2d 94 87 3e
       0.124902606 0.0 -0.091466874 0.26480237
000390 8a d8 2f 3e 5a 99 3b 3e 00 00 00 80 61 c6 9b 3e
       0.17172447 0.18320218 -0.0 0.3042479
0003a0 4b 56 65 be 18 b5 5c be eb c8 4f be 6e 6f 55 be
       -0.223962 -0.21553457 -0.20291488 -0.20843288
0003b0 00 00 00 00 08 e0 7a 3d 6e 0b 61 be d6 e4 4a be
       0.0 0.06124881 -0.21977016 -0.19813856
0003c0 ca 47 03 3e 34 40 8b be 16 4a b4 bd 12 5c 43 3e
       0.12820354 -0.2719742 -0.08803193 0.19078091
0003d0 00 00 00 00 00 00 00 00 dc c6 e8 bd 00 00 00 00
       0.0 0.0 -0.113660544 0.0
0003e0 90 b1 81 bd 28 08 76 bd e6 41 6c be a8 a9 72 bd
       -0.063326955 -0.060066372 -0.23072013 -0.059243828
0003f0 6e c2 3c be 2f a9 8f be 00 00 00 80 00 00 00 00
       -0.18433544 -0.28058764 -0.0 0.0

layers.5.1.weight f4 [32, 32, 1, 1]
000000 00 00 00 80 fa 8d 08 be 1e 98 b4 3d 00 00 00 00
       -0.0 -0.1333541 0.088180766 0.0
000010 bd d4 15 3e 00 00 00 80 00 00 00 80 00 00 00 80
       0.14631934 -0.0 -0.0 -0.0
000020 2a bb 9a 3d b7 25 31 3e be 04 e7 bd 00 00 00 00
       0.0755523 0.17299543 -0.112802014 0.0
000030 02 bf c3 3d d5 a8 a6 bd 3a f6 e2 3d 98 22 8d 3d
       0.09557916 -0.08137671 0.1108212 0.06891364
000040 3a 54 aa bd 29 55 0a 3e 34 83 8f 3d fb 95 0c 3e
       -0.08316846 0.13509049 0.07007447 0.13729088
000050 b9 95 d8 bd 62 fb 0b be ad b2 8d bd ca 77 12 be
       -0.10575432 -0.13670114 -0.06918845 -0.14303508
000060 02 ae c8 3d 00 00 00 80 1a 6f e4 bd 00 00 00 80
       0.09798814 -0.0 -0.111540034 -0.0
000070 9c 87 ea bd ea 8e 0b be 54 21 17 be 00 00 00 00
       -0.11451647 -0.13628736 -0.14758807 0.0
000080 2e 33 b2 3d b3 79 00 3e c0 d5 90 3d 00 00 00 00
       0.08701168 0.12546425 0.070720196 0.0
000090 00 00 00 00 66 4c 8b bd 66 13 d6 3d 96 7a ce bd
       0.0 -0.06801681 0.10452919 -0.10081975
0000a0 00 00 00 00 af a0 b6 bd 82 b6 c4 bd 16 e8 a9 3d
       0.0 -0.08917367 -0.09605123 0.0829622
0000b0 e4 39 96 bd 7b 8d 1d be 00 00 00 80 b4 2e 84 bd
       -0.073352605 -0.15386002 -0.0 -0.064542204
0000c0 44 48 73 bd cc c3 31 be ea 52 ce 3d 66 8a fc 3d
       -0.05939509 -0.17359847 0.10074408 0.12331085
0000d0 29 95 a1 bd d0 58 7c 3d 00 00 00 80 71 db 06 3e
       -0.07889778 0.061608136 -0.0 0.13169648
0000e0 76 93 c2 bd 00 00 00 80 fa e3 87 3d 00 00 00 80
       -0.09500782 -0.0 0.0663528 -0.0
0000f0 d4 d6 87 3d 9c 10 88 bd 00 00 00 80 00 00 00 00
       0.06632772 -0.06643793 -0.0 0.0
000100 50 f2 f9 bd e5 4f c7 bd 00 00 00 80 00 00 00 80
       -0.122044206 -0.097320355 -0.0 -0.0
000110 19 5d 00 be 11 d7 07 3e 79 42 31 be c3 2b 00 3e
       -0.12535514 0.13265635 -0.17310514 0.12516694
000120 55 25 e1 bd a6 dc fd bd ee ae de 3d ce 79 fb bd
       -0.10993449 -0.12395601 0.10873209 -0.12279092
000130 00 00 00 80 5f 64 1a 3e 66 15 b7 3d 64 bd 16 be
       -0.0 0.15077351 0.08939628 -0.14720684
000140 00 00 00 80 a9 d3 97 bd 71 45 93 bd 7e 51 d6 3d
       -0.0 -0.07413418 -0.07190979 0.10464762
000150 5c 5b 9c bd 00 00 00 00 00 00 00 00 4d 3d 32 be
       -0.07634613 0.0 0.0 -0.17406197
000160 43 50 cf bd 00 00 00 00 99 15 2b be fd 4e ac bd
       -0.101227306 0.0 -0.16707458 -0.08413503
000170 95 08 1b 3e 69 9c 30 3e 00 00 00 00 a2 56 d4 3d
       0.15139993 0.17247166 0.0 0.103680864
000180 00 00 00 00 2c 92 93 3d e2 3c cb bd 27 28 17 be
       0.0 0.072056144 -0.09923722 -0.1476141
000190 d7 0c bd bd d7 61 01 3e 43 af 23 be c2 30 b8 3d
       -0.09230965 0.12634979 -0.15984826 0.08993675
0001a0 08 02 00 be 40 ad 87 3d 00 00 00 80 55 f8 92 bd
       -0.12500775 0.06624842 -0.0 -0.07176272
0001b0 00 00 00 80 fb 4f 8d bd 00 00 00 00 36 1d d7 3d
       -0.0 -0.06900021 0.0 0.105036184
0001c0 d1 f5 04 3e 00 00 00 80 8b bb 22 be e4 96 a2 bd
       0.12984397 -0.0 -0.15891854 -0.07938936
0001d0 00 00 00 80 00 00 00 00 bc a4 a2 bd 18 f7 6f 3d
       -0.0 0.0 -0.07941577 0.058585256
0001e0 1e 6f cb 3d 22 08 e7 3d a7 f9 27 3e 50 62 06 be
       0.09933303 0.11280848 0.16403829 -0.1312344
0001f0 a9 eb bc bd c8 0d ac bd 00 00 00 80 6f 42 24 3e
       -0.09224636 -0.08401066 -0.0 0.16040967
000200 a0 e9 7e 3d 00 00 00 00 b2 86 2d be 00 00 00 80
       0.06223452 0.0 -0.16945913 -0.0
000210 00 00 00 00 00 00 00 80 00 00 00 80 00 00 00 00
       0.0 -0.0 -0.0 0.0
000220 42 bc a6 bd 92 42 95 3d 00 00 00 80 d5 ed f6 bd
       -0.08141376 0.07288088 -0.0 -0.120570816
000230 40 d1 e5 bd 00 00 00 80 23 e0 0d be d5 25 30 3e
       -0.11221552 -0.0 -0.13855033 0.17201932
000240 03 2a 0f be 00 00 00 80 a1 82 28 be 9c 8a 76 3d
       -0.1398087 -0.0 -0.16456081 0.060190782
000250 da f6 a2 3d 00 00 00 80 00 00 00 00 00 00 00 80
       0.079572394 -0.0 0.0 -0.0
000260 00 00 00 80 3a 25 9f 3d 7b d8 1b 3e 0e 1e cd 3d
       -0.0 0.07770772 0.152193 0.10015498
000270 4e b9 8b 3d ad 97 0e 3e ee ec 86 bd 45 ee 32 3e
       0.068224534 0.13925047 -0.065881595 0.17473705
000280 29 36 34 be 00 00 00 00 16 e5 25 be 00 00 00 00
       -0.17598785 0.0 -0.1620067 0.0
000290 71 57 02 be 00 00 00 80 d6 bd b3 bd 00 00 00 80
       -0.12728669 -0.0 -0.08776443 -0.0
0002a0 00 00 00 00 00 00 00 00 75 ec cf bd 00 00 00 00
       0.0 0.0 -0.101525225 0.0
0002b0 51 85 17 3e 45 ca 1e be 3e c8 be 3d 00 00 00 80
       0.1479695 -0.15506847 0.09315537 -0.0
0002c0 56 a7 f2 3d 00 00 00 00 00 00 00 80 c2 26 d1 3d
       0.11848323 0.0 -0.0 0.102124706
0002d0 fc 99 82 bd 00 00 00 80 37 67 a0 bd 08 40 28 be
       -0.063770264 -0.0 -0.07832187 -0.16430676
0002e0 d2 28 27 be f2 4b 64 bd 11 31 2b 3e d4 c3 fa bd
       -0.16324165 -0.05573649 0.16717936 -0.122443825
0002f0 f2 7e a4 3d fd 98 21 3e d7 bc 1c be bd 09 22 be
       0.080320254 0.15781017 -0.15306412 -0.15824027
000300 00 00 00 00 00 00 00 00 31 d1 d9 bd 04 84 29 be
       0.0 0.0 -0.10635603 -0.16554266
000310 00 00 00 00 d2 b4 7c bd ba ea dc 3d 91 bc 2f 3e
       0.0 -0.06169588 0.10786958 0.17161776
000320 60 4d 25 be 80 4e 31 be 75 23 18 3e 4a de 1b be
       -0.16142797 -0.17315102 0.14857276 -0.15221515
000330 00 00 00 80 c1 26 b8 bd 00 00 00 80 d1 85 af bd
       -0.0 -0.08991767 -0.0 -0.08570445
000340 00 00 00 80 22 bd ec 3d 00 00 00 00 00 00 00 80
       -0.0 0.11559512 0.0 -0.0
000350 4c 9a 76 3d 00 00 00 00 00 00 00 00 00 00 00 80
       0.060205743 0.0 0.0 -0.0
000360 52 3c 13 be 00 00 00 80 00 00 00 00 00 00 00 80
       -0.14378479 -0.0 0.0 -0.0
000370 96 fd 0c be 57 60 32 3e 26 ba cd 3d 00 00 00 80
       -0.1376861 0.17419563 0.100452706 -0.0
000380 00 00 00 00 c5 b2 e9 bd 06 94 ff 3d ac d2 16 be
       0.0 -0.11411051 0.12479405 -0.14728802
000390 fd b3 10 3e 26 e2 ec bd 00 00 00 80 00 00 00 00
       0.1413116 -0.11566572 -0.0 0.0
0003a0 1a 1a b6 3d b6 42 f5 3d d9 30 99 bd be f1 d2 3d
       0.08891697 0.11975615 -0.0748002 0.10300015
0003b0 00 00 00 00 00 00 00 80 00 00 00 00 08 a8 9d bd
       0.0 -0.0 0.0 -0.07698065
0003c0 c0 67 b0 bd 00 00 00 00 00 00 00 80 00 00 00 80
       -0.08613539 0.0 -0.0 -0.0
0003d0 d0 9a 7c bd 00 00 00 00 2e e0 ce 3d 9e 0f df 3d
       -0.06167108 0.0 0.10101353 0.108916506
0003e0 dd 72 82 bd 00 00 00 00 00 00 00 80 00 00 00 80
       -0.06369565 0.0 -0.0 -0.0
0003f0 ae a8 29 be 72 75 a6 bd 5c cb a8 bd 7b a8 0e 3e
       -0.16568252 -0.0812787 -0.08241913 0.13931458

layers.5.2.weight f4 [32]
000000 00 00 80 3f 00 00 80 3f 00 00 80 3f 00 00 80 3f
       1.0 1.0 1.0 1.0
000010 00 00 80 3f 00 00 80 3f 00 00 80 3f 00 00 80 3f
       1.0 1.0 1.0 1.0
000020 00 00 80 3f 00 00 80 3f 00 00 80 3f 00 00 80 3f
       1.0 1.0 1.0 1.0
000030 00 00 80 3f 00 00 80 3f 00 00 80 3f 00 00 80 3f
       1.0 1.0 1.0 1.0
000040 00 00 80 3f 00 00 80 3f 00 00 80 3f 00 00 80 3f
       1.0 1.0 1.0 1.0
000050 00 00 80 3f 00 00 80 3f 00 00 80 3f 00 00 80 3f
       1.0 1.0 1.0 1.0
000060 00 00 80 3f 00 00 80 3f 00 00 80 3f 00 00 80 3f
       1.0 1.0 1.0 1.0
000070 00 00 80 3f 00 00 80 3f 00 00 80 3f 00 00 80 3f
       1.0 1.0 1.0 1.0

layers.5.2.bias f4 [32]
000000 00 00 00 00 00 00 00 00 00 00 00 00 00 00 00 00
       0.0 0.0 0.0 0.0
000010 00 00 00 00 00 00 00 00 00 00 00 00 00 00 00 00
       0.0 0.0 0.0 0.0
000020 00 00 00 00 00 00 00 00 00 00 00 00 00 00 00 00
       0.0 0.0 0.0 0.0
000030 00 00 00 00 00 00 00 00 00 00 00 00 00 00 00 00
       0.0 0.0 0.0 0.0
000040 00 00 00 00 00 00 00 00 00 00 00 00 00 00 00 00
       0.0 0.0 0.0 0.0
000050 00 00 00 00 00 00 00 00 00 00 00 00 00 00 00 00
       0.0 0.0 0.0 0.0
000060 00 00 00 00 00 00 00 00 00 00 00 00 00 00 00 00
       0.0 0.0 0.0 0.0
000070 00 00 00 00 00 00 00 00 00 00 00 00 00 00 00 00
       0.0 0.0 0.0 0.0

layers.5.2.running_mean f4 [32]
000000 00 00 00 00 00 00 00 00 00 00 00 00 00 00 00 00
       0.0 0.0 0.0 0.0
000010 00 00 00 00 00 00 00 00 00 00 00 00 00 00 00 00
       0.0 0.0 0.0 0.0
000020 00 00 00 00 00 00 00 00 00 00 00 00 00 00 00 00
       0.0 0.0 0.0 0.0
000030 00 00 00 00 00 00 00 00 00 00 00 00 00 00 00 00
       0.0 0.0 0.0 0.0
000040 00 00 00 00 00 00 00 00 00 00 00 00 00 00 00 00
       0.0 0.0 0.0 0.0
000050 00 00 00 00 00 00 00 00 00 00 00 00 00 00 00 00
       0.0 0.0 0.0 0.0
000060 00 00 00 00 00 00 00 00 00 00 00 00 00 00 00 00
       0.0 0.0 0.0 0.0
000070 00 00 00 00 00 00 00 00 00 00 00 00 00 00 00 00
       0.0 0.0 0.0 0.0

layers.5.2.running_var f4 [32]
000000 00 00 80 3f 00 00 80 3f 00 00 80 3f 00 00 80 3f
       1.0 1.0 1.0 1.0
000010 00 00 80 3f 00 00 80 3f 00 00 80 3f 00 00 80 3f
       1.0 1.0 1.0 1.0
000020 00 00 80 3f 00 00 80 3f 00 00 80 3f 00 00 80 3f
       1.0 1.0 1.0 1.0
000030 00 00 80 3f 00 00 80 3f 00 00 80 3f 00 00 80 3f
       1.0 1.0 1.0 1.0
000040 00 00 80 3f 00 00 80 3f 00 00 80 3f 00 00 80 3f
       1.0 1.0 1.0 1.0
000050 00 00 80 3f 00 00 80 3f 00 00 80 3f 00 00 80 3f
       1.0 1.0 1.0 1.0
000060 00 00 80 3f 00 00 80 3f 00 00 80 3f 00 00 80 3f
       1.0 1.0 1.0 1.0
000070 00 00 80 3f 00 00 80 3f 00 00 80 3f 00 00 80 3f
       1.0 1.0 1.0 1.0
