deployment_outputs/skipconnect_sepconv3x3_sepconv5x5.pth (torch, 37192 bytes, 27 tensors)

layers.1.0.weight f4 [16, 1, 3, 3]
0.13962498 0.29101267 0.14982748 -0.19137546 0.28277543 -0.003614068 0.04260382 0.28278884
0.22885618 -0.081115246 0.14081445 -0.24628413 0.040612906 0.30249754 -0.18721446 0.2338982
-0.06559852 0.0064959526 0.11226609 -0.029257655 -0.27245268 -0.18722057 -0.27792 -0.15504634
-0.23163927 0.1273731 0.13950908 0.12461543 -0.07690492 -0.036795378 -0.05100146 -0.2355634
-0.3161503 -0.302754 0.030263752 -0.1666399 -0.02377665 -0.087981194 -0.1563606 -0.023471147
0.22813043 0.00804165 -0.08745138 -0.1110857 -0.15302587 -0.16022453 -0.14311561 0.18989018
0.07825598 -0.18957357 -0.12521116 0.049646467 0.25486854 0.0684087 -0.3306137 -0.053846717
0.11516735 -0.1275479 0.22162381 -0.31216532 -0.053969353 0.29915527 0.093963176 -0.12628374
-0.26618892 -0.19801065 -0.32132202 0.012113422 0.31734458 0.087926894 -0.3078907 0.12775514
-0.08306542 -0.00441131 0.18350449 -0.2825473 -0.32287368 0.0029141903 -0.1582216 -0.3092024
0.20726523 0.24195448 -0.31046483 0.10890344 0.07497954 -0.1166482 -0.33223101 0.11518407
0.04996097 -0.16771655 0.2891657 0.2340397 -0.1344173 0.27102748 0.3081725 -0.0028779507
-0.23319308 -0.13541031 -0.21419919 -0.31681514 0.31592605 0.13978514 0.120894104 0.09882045
0.15407658 -0.12566392 0.22443649 -0.13083956 0.2560567 0.15580013 0.029281616 0.11721137
-0.022060633 0.2837412 -0.118581176 -0.038543016 -0.20442832 0.17938045 0.307968 -0.2508366
0.14481735 0.08624229 0.25645575 0.28616348 0.26053926 -0.3269589 -0.0075522363 0.060267
0.121169716 0.2872559 -0.30980176 -0.0045346916 0.27987847 0.13252398 -0.22468595 0.061560005
0.11461976 0.19493511 -0.04576847 0.023374647 -0.15405285 -0.18530044 -0.13474743 0.18364647
00000000: daf9 0e3e 9dff 943e 606c 193e eef7 43be
00000010: f1c7 903e 00da 6cbb 5881 2e3d b3c9 903e
00000020: 4659 6a3e c01f a6bd aa31 103e e831 7cbe
00000030: b859 263d f5e0 9a3e 26b5 3fbe 0283 6f3e
00000040: 8458 86bd 00dc d43b c4eb e53d c0ad efbc
00000050: eb7e 8bbe c0b6 3fbe 884b 8ebe 78c4 1ebe
00000060: d832 6dbe 186e 023e 78db 0e3e 6036 ff3d
00000070: 5480 9dbd c0b6 16bd e8e6 50bd 8837 71be
00000080: 74de a1be 9302 9bbe b0eb f73c a6a3 2abe
00000090: 40c7 c2bc 7c2f b4bd fe1c 20be 9046 c0bc
000000a0: 069b 693e 20c1 033c b619 b3bd e680 e3bd
000000b0: d0b2 1cbe e611 24be e68c 12be 9272 423e
000000c0: ac44 a03d 931f 42be 5b37 00be 185a 4b3d
000000d0: 217e 823e dc19 8c3d 3346 a9be 608e 5cbd
000000e0: dcdc eb3d eb9b 02be 5af1 623e 22d4 9fbe
000000f0: f80e 5dbd e12a 993e c46f c03d 8650 01be
00000100: ea49 88be 4ec3 4abe 5284 a4be 6077 463c
00000110: fd7a a23e 0413 b43d daa3 9dbe 3ed2 023e
00000120: 341e aabd c08c 90bb 9ae8 3b3e 0aaa 90be
00000130: b34f a5be 00fc 3e3b d804 22be c74f 9ebe
00000140: 563d 543e eac2 773e 3ff5 9ebe c408 df3d
00000150: e08e 993d 40e5 eebd 2f1a aabe a0e5 eb3d
00000160: e0a3 4c3d e3bd 2bbe 870d 943e 1aa8 6f3e
00000170: b0a4 09be 1dc4 8a3e c9c8 9d3e 009c 3cbb
00000180: 2bca 6ebe 00a9 0abe 0857 5bbe 9835 a2be
00000190: 0fc1 a13e d623 0f3e 5497 f73d 6062 ca3d
000001a0: 40c6 1d3e 0bae 00be aed2 653e cefa 05be
000001b0: dd19 833e 128a 1f3e 00e0 ef3c 840c f03d
000001c0: 80b8 b4bc 8746 913e b0da f2bd 48df 1dbd
000001d0: a855 51be 82af 373e fbad 9d3e a86d 80be
000001e0: 004b 143e cc9f b03d 2b4e 833e 0584 923e
000001f0: 6765 853e 2867 a7be c078 f7bb 88da 763d
00000200: d427 f83d 3513 933e 569e 9ebe c097 94bb
00000210: 3b4c 8f3e 5eb4 073e 1314 66be 5826 7c3d
00000220: c4bd ea3d 129d 473e b877 3bbd 307c bf3c
00000230: 08c0 1dbe 66bf 3dbe 3bfb 09be d20d 3c3e

layers.1.1.weight f4 [16, 16, 1, 1]
-0.18896732 0.0781109 0.16390243 -0.07423979 0.18284693 -0.24815407 -0.19104645 -0.124444515
0.10115677 -0.103288025 -0.12853181 0.19710806 0.117004365 -0.124546915 -0.0068731904 -0.10652
0.23659125 0.1229876 0.15453762 0.16195124 -0.047647 0.21064198 0.24601245 -0.23553228
0.09933385 0.17266789 0.046039075 -0.2029112 0.10943651 0.09626931 0.18727034 0.12568924
-0.022303969 0.1201126 0.14241222 -0.19357213 -0.18557367 -0.15666875 0.15683779 -0.19797224
0.22254756 0.0642885 0.04961872 0.06262198 -0.21209437 0.07988265 -0.19791353 0.21908718
0.06703594 -0.106768996 -0.04437679 -0.2332648 0.17124596 0.20704201 0.19556087 0.14921445
0.14352274 -0.06853065 -0.030450672 0.08557695 0.20562837 0.2434865 0.12540755 -0.2123492
-0.04691881 -0.18964669 -0.15085429 -0.1704399 -0.012089312 -0.20486599 -0.07579845 -0.15083754
0.16760603 -0.1100443 0.014400095 -0.11495969 0.13734767 0.069936275 -0.13716498 -0.082614005
-0.09210485 0.059069574 -0.03826472 0.14813173 -0.14697042 0.21606642 0.13843119 0.18443406
-0.15563646 0.02502343 -0.013807714 0.07615614 0.21035129 -0.014251202 0.20470563 -0.043617666
-0.17981163 0.2297138 0.02775821 0.14604384 -0.1561465 -0.029068202 0.20179957 0.18121862
0.00026345253 0.094994664 -0.0935933 -0.17668146 -0.21304709 0.058058202 0.027170569 0.12862709
0.14146754 0.14326456 0.21797213 -0.2447905 0.08639002 -0.22801074 0.16671538 -0.044004023
0.13452971 0.030970812 -0.03477046 -0.04655674 0.20933151 -0.057516336 0.11193165 -0.17681336
0.1750316 -0.0233545 -0.13975346 0.24110708 0.21546832 -0.04466504 0.04595864 -0.017701238
0.17820138 -0.19620374 -0.13915431 -0.021019459 -0.18221575 -0.143758 -0.16027707 0.133392
0.012552857 -0.03244871 0.030008405 -0.15414718 0.028383285 -0.13427654 -0.19118392 -0.20758465
-0.24712133 -0.23553357 0.24558452 -0.037258804 0.008757174 -0.12244555 0.050797492 0.010615408
0.09744942 -0.017925471 0.032481402 0.17284283 -0.19547155 -0.24166617 0.002797991 0.22510573
-0.19542122 -0.081356674 -0.08814135 0.11821994 -0.24880615 -0.09666628 -0.09701711 0.043958038
-0.21062633 -0.16531524 -0.09357059 0.04557851 -0.201599 -0.16761369 -0.21587482 -0.06776753
0.0013344288 0.09531462 0.007449031 -0.18689898 -0.23875213 -0.027506769 -0.028439194 0.026357383
-0.06466484 0.14718327 -0.20508051 0.23813638 0.21974501 0.1353131 -0.14027444 0.2287598
-0.077181935 0.16737467 -0.17480293 -0.17794299 0.04105118 -0.059943646 0.065241605 0.24596977
0.22272599 -0.17290741 -0.026737213 -0.11978847 -0.124729544 0.16404751 0.15813673 0.23637354
0.13217315 0.11455363 -0.09696627 -0.01511544 0.019580007 -0.083213806 0.021454036 0.01782772
-0.01701352 0.019909054 0.20660022 0.21483809 -0.023058593 -0.022627532 -0.02340424 -0.2494601
-0.11185089 0.08002055 -0.17500144 0.023025066 0.168735 -0.21096161 -0.095722616 -0.15822041
0.07316083 0.024874479 0.24122518 -0.02742216 0.0001642108 0.12008163 0.12520128 -0.2013979
-0.03757319 -0.0020357668 0.06451172 0.14943871 -0.18913335 0.12764719 -0.04360956 -0.119612366
00000000: a680 41be 9cf8 9f3d 0ad6 273e 080b 98bd
00000010: 3a3c 3b3e 1a1c 7ebe aea1 43be c4dc febd
00000020: 482b cf3d ac88 d3bd d89d 03be b2d6 493e
00000030: fc9f ef3d 7412 ffbd 8038 e1bb 2827 dabd
00000040: fa44 723e ece0 fb3d 1c3f 1e3e 8cd6 253e
00000050: 8029 43bd 88b2 573e b0ea 7b3e 602f 71be
00000060: 8c6f cb3d dacf 303e 7893 3c3d f4c7 4fbe
00000070: 4020 e03d d828 c53d ccc3 3f3e aeb4 003e
00000080: d0b6 b6bc 98fd f53d 82d4 113e c637 46be
00000090: 0607 3ebe c66d 20be 169a 203e 3cb9 4abe
000000a0: 82e3 633e b0a9 833d 003d 4b3d f43f 803d
000000b0: 442f 59be 8499 a33d d8a9 4abe 6458 603e
000000c0: 244a 893d b4a9 dabd 70c4 35bd f8dc 6ebe
000000d0: 1a5b 2f3e d202 543e 1c41 483e accb 183e
000000e0: a0f7 123e cc59 8cbd b073 f9bc f842 af3d
000000f0: 3e90 523e 8654 793e d66a 003e 1272 59be
00000100: f02d 40bd be32 42be 8c79 1abe cc87 2ebe
00000110: 4012 46bc 64c8 51be 383c 9bbd 2875 1abe
00000120: eaa0 2b3e e85e e1bd 60ee 6b3c fc6f ebbd
00000130: dea4 0c3e c03a 8f3d fa74 0cbe 8831 a9bd
00000140: 78a1 bcbd f0f2 713d 78bb 1cbd d8af 173e
00000150: 6a7f 16be 8440 5d3e e8c0 0d3e 48dc 3c3e
00000160: 2a5f 1fbe f0fd cc3c c039 62bc c0f7 9b3d
00000170: 5466 573e e07d 69bc 5a9e 513e 70a8 32bd
00000180: 8a20 38be 183a 6b3e 3065 e33c 848c 153e
00000190: dee4 1fbe 7020 eebc 8ca4 4e3e 6091 393e
000001a0: 0020 8a39 908c c23d d8ad bfbd fceb 34be
000001b0: 0429 5abe 70ce 6d3d d094 de3c d2b6 033e
000001c0: dedc 103e f2b3 123e 1634 5f3e 5caa 7abe
000001d0: 40ed b03d a67b 69be 70b7 2a3e 903d 34bd
000001e0: 28c2 093e 80b6 fd3c 786b 0ebd 48b2 3ebd
000001f0: 005b 563e 4096 6bbd 6c3c e53d 900e 35be
00000200: 7c3b 333e f051 bfbc 881b 0fbe c6e4 763e
00000210: baa3 5c3e b0f2 36bd 203f 3c3d 3002 91bc
00000220: 6c7a 363e a2e9 48be 787e 0ebe 0031 acbc
00000230: c496 3abe 4c35 13be ac1f 24be ea97 083e
00000240: 80aa 4d3c f0e8 04bd 30d4 f53c c2d8 1dbe
00000250: 1084 e83c ca7f 09be b8c5 43be 1291 54be
00000260: 600d 7dbe b62f 71be 827a 7b3e b09c 18bd
00000270: 407a 0f3c bcc4 fabd 0811 503d 40ec 2d3c
00000280: 9093 c73d 70d8 92bc 380b 053d b6fd 303e
00000290: b229 48be 5677 77be 805e 373b 1e82 663e
000002a0: 801c 48be 549e a6bd 7483 b4bd 4c1d f23d
000002b0: 0ac7 7ebe f8f8 c5bd e8b0 c6bd 580d 343d
000002c0: 6eae 57be 6648 29be f0a1 bfbd 88b0 3a3d
000002d0: f86f 4ebe eca2 2bbe 4a0e 5dbe b4c9 8abd
000002e0: 00e8 ae3a 5034 c33d 0017 f43b 7262 3fbe
000002f0: 707b 74be e055 e1bc 50f9 e8bc 70eb d73c
00000300: 006f 84bd 36b7 163e a000 52be 06da 733e
00000310: d604 613e 848f 0a3e 1aa4 0fbe 0240 6a3e
00000320: 9011 9ebd 4464 2b3e 8aff 32be b036 36be
00000330: 4825 283d 7887 75bd 649d 853d 80df 7b3e
00000340: 4812 643e a40e 31be 0008 dbbc a853 f5bd
00000350: 3472 ffbd 12fc 273e 98ee 213e e80b 723e
00000360: 6658 073e 189b ea3d 4096 c6bd c0a6 77bc
00000370: 4066 a03c 006c aabd 60c0 af3c 700b 923c
00000380: f05f 8bbc 5018 a33c 028f 533e 84fe 5b3e
00000390: 60e5 bcbc 605d b9bc 40ba bfbc 7872 7fbe
000003a0: 1412 e5bd d0e1 a33d 9433 33be 109f bc3c
000003b0: dec8 2c3e 5206 58be 380a c4bd 8804 22be
000003c0: 58d5 953d 90c5 cb3c bc03 773e 70a4 e0bc
000003d0: 0030 2c39 5ced f53d c434 003e 403b 4ebe
000003e0: 58e6 19bd 806a 05bb b81e 843d 7606 193e
000003f0: 2cac 41be f2b5 023e f09f 32bd 54f7 f4bd

layers.1.2.weight f4 [16]
1.0 1.0 1.0 1.0 1.0 1.0 1.0 1.0
1.0 1.0 1.0 1.0 1.0 1.0 1.0 1.0
00000000: 0000 803f 0000 803f 0000 803f 0000 803f
00000010: 0000 803f 0000 803f 0000 803f 0000 803f
00000020: 0000 803f 0000 803f 0000 803f 0000 803f
00000030: 0000 803f 0000 803f 0000 803f 0000 803f

layers.1.2.bias f4 [16]
0.0 0.0 0.0 0.0 0.0 0.0 0.0 0.0
0.0 0.0 0.0 0.0 0.0 0.0 0.0 0.0
00000000: 0000 0000 0000 0000 0000 0000 0000 0000
00000010: 0000 0000 0000 0000 0000 0000 0000 0000
00000020: 0000 0000 0000 0000 0000 0000 0000 0000
00000030: 0000 0000 0000 0000 0000 0000 0000 0000

layers.1.2.running_mean f4 [16]
0.0 0.0 0.0 0.0 0.0 0.0 0.0 0.0
0.0 0.0 0.0 0.0 0.0 0.0 0.0 0.0
00000000: 0000 0000 0000 0000 0000 0000 0000 0000
00000010: 0000 0000 0000 0000 0000 0000 0000 0000
00000020: 0000 0000 0000 0000 0000 0000 0000 0000
00000030: 0000 0000 0000 0000 0000 0000 0000 0000

layers.1.2.running_var f4 [16]
1.0 1.0 1.0 1.0 1.0 1.0 1.0 1.0
1.0 1.0 1.0 1.0 1.0 1.0 1.0 1.0
00000000: 0000 803f 0000 803f 0000 803f 0000 803f
00000010: 0000 803f 0000 803f 0000 803f 0000 803f
00000020: 0000 803f 0000 803f 0000 803f 0000 803f
00000030: 0000 803f 0000 803f 0000 803f 0000 803f

layers.2.0.weight f4 [16, 1, 5, 5]
-0.09551287 0.1411243 0.10637109 0.1611842 0.18103577 -0.04980354 -0.16309588 0.18315269
-0.030755714 -0.17465876 0.16407461 -0.029578358 0.1200598 0.10267337 -0.021264583 -0.00664632
0.09972514 -0.1942461 0.113453045 -0.051732823 0.12585129 0.03930533 0.13550617 -0.085641764
-0.18472624 -0.16884537 0.045849875 0.012589455 0.0851496 0.14668177 -0.00575383 0.12731771
-0.13274819 -0.0897038 0.15059303 0.14342381 -0.10629632 -0.07306941 -0.01321575 -0.033371717
-0.08747866 -0.19283526 0.196768 -0.14223623 -0.0077174604 -0.15632114 0.10184066 -0.03200957
0.10768764 -0.075760365 0.13383634 -0.07230675 -0.14134867 -0.011653781 -0.10622592 0.1316268
-0.13440412 0.19599904 0.07471122 -0.055484444 0.18499158 -0.021322161 -0.15732467 0.055506095
0.054972425 -0.025053069 0.037017748 -0.06516802 0.07803853 -0.13082346 -0.16029601 -0.19254391
0.07992686 -0.04602225 0.11139323 -0.10124514 -0.13024959 0.121736065 0.026008397 -0.18254626
0.08747266 -0.15667768 0.16613291 -0.16755441 0.119650856 -0.18772464 -0.15266104 0.08065604
0.14636706 -0.0054020137 -0.12495925 0.11250438 0.008477002 0.04710099 -0.047897413 0.04375644
0.17279531 0.10144289 -0.051540226 0.060014233 0.15341534 0.05681832 -0.09897778 -0.13469392
-0.15324457 -0.04462187 0.10980125 -0.07433906 0.10538794 -0.1450932 -0.15092452 0.12961476
0.03145854 0.05511196 -0.051626727 -0.18937622 -0.071559355 0.010442942 -0.0108368695 -0.018135399
0.17316963 0.058945164 0.043198973 0.09477152 0.11971657 0.009606913 0.08149578 -0.02531764
-0.17184535 0.15882282 -0.07469456 0.14088397 -0.050976425 0.043240637 -0.08839128 0.14501022
0.033257753 -0.13130441 -0.07577746 0.1554947 0.14806418 -0.14534089 0.12875108 0.040861055
0.14196087 -0.009416789 0.18305077 0.14115162 -0.11635633 0.023223191 -0.15807708 0.06962563
-0.08240571 -0.1548119 -0.12861831 0.13559146 0.09643228 -0.1482133 0.015801236 -0.15637806
0.0028965771 0.099819675 -0.1320575 -0.026317835 -0.113616206 -0.11785562 0.015889257 0.14841892
-0.054730535 0.14323594 0.17213066 -0.04251793 -0.096383505 0.0025126934 0.07254507 0.06784622
-0.1194727 0.15925957 -0.06408171 -0.08935137 -0.0323337 0.16649331 -0.0145239085 0.19702567
-0.16189861 0.015258744 -0.048742816 0.15847947 0.011712164 -0.044522524 -0.014574885 0.031391785
-0.15032467 0.103599444 -0.15206957 0.10136591 0.013831973 0.005781263 -0.15439138 -0.06525412
0.112343594 0.01771383 0.07650702 0.09489931 0.046677753 -0.14013791 0.14382856 0.13222007
0.0023027658 0.0035769194 0.10280572 0.04672286 0.18170907 -0.15814471 -0.18924706 0.036286995
-0.17521715 0.18498372 -0.1667177 0.075765565 0.14775796 -0.05649388 -0.040316343 0.03344302
-0.14953199 0.16096963 -0.10950585 0.16619815 0.009684235 0.032872036 0.05626531 0.11779131
0.14553656 -0.012479901 0.17834903 0.17770533 0.02814436 -0.02460508 -0.060926512 0.091666296
-0.12531358 0.15785675 0.013926268 -0.12005346 -0.036658645 -0.10097144 -0.1858321 -0.12816706
-0.013038427 0.034701273 -0.111479096 -0.14537863 0.1391591 0.0267725 0.044360876 -0.13898866
00000000: 409c c3bd e382 103e 16d9 d93d 790d 253e
00000010: 7161 393e ccfe 4bbd 9b02 27be 618c 3b3e
00000020: 68f3 fbbc bfd9 32be 2d03 283e 504e f2bc
00000030: eae1 f53d 6a46 d23d 1033 aebc 60c9 d9bb
00000040: b23c cc3d 73e8 46be 125a e83d cce5 53bd
00000050: 29df 003e a0fe 203d 21c2 0a3e f364 afbd
00000060: e028 3dbe cde5 2cbe 14cd 3b3d 0044 4e3c
00000070: ea62 ae3d bf33 163e a08a bcbb 935f 023e
00000080: 24ef 07be a0b6 b7bd 0f35 1a3e b1dd 123e
00000090: e3b1 d9bd 6aa5 95bd e086 58bc c8b0 08bd
000000a0: 0328 b3bd 9b76 45be 8d7d 493e 60a6 11be
000000b0: c0e2 fcbb a612 20be d691 d03d 781c 03bd
000000c0: 568b dc3d 4028 9bbd 650c 093e 9015 94bd
000000d0: b5bd 10be 80ef 3ebc fa8c d9bd 2dc9 063e
000000e0: 3ca1 09be f9b3 483e 3202 993d a843 63bd
000000f0: 6f6e 3d3e d0ab aebc b819 21be 5c5a 633d
00000100: c42a 613d 183c cdbc ec9f 173d d076 85bd
00000110: aad2 9f3d 96f6 05be a324 24be 3b2a 45be
00000120: b2b0 a33d d481 3cbd 2222 e43d 9d59 cfbd
00000130: 2660 05be c250 f93d 900f d53c 68ed 3abe
00000140: de24 b33d 1d70 20be bf1e 2a3e 6293 2bbe
00000150: 820b f53d e33a 40be 2d53 1cbe fe2e a53d
00000160: 3fe1 153e 6003 b1bb a3ea ffbd b268 e63d
00000170: 20e3 0a3c f8ec 403d 1430 44bd f439 333d
00000180: 41f1 303e 4ac1 cf3d d81b 53bd 7cd1 753d
00000190: e918 1d3e 54ba 683d ddb4 cabd 34ed 09be
000001a0: 25ec 1cbe 6cc5 36bd 7adf e03d 143f 98bd
000001b0: a2d5 d73d 5093 14be f58b 1abe bbb9 043e
000001c0: acda 003d 14bd 613d 8c76 53bd d7eb 41be
000001d0: b68d 92bd e018 2b3c 208d 31bc b090 94bc
000001e0: 6153 313e 7c70 713d 68f1 303d 9217 c23d
000001f0: f62d f53d 5066 1d3c 42e7 a63d f066 cfbc
00000200: 3af8 2fbe 73a2 223e 76f9 98bd e343 103e
00000210: a8cc 50bd 181d 313d 7d06 b5bd 8f7d 143e
00000220: 4839 083d aa74 06be 3731 9bbd 013a 1f3e
00000230: 239e 173e 3ed4 14be 53d7 033e ec5d 273d
00000240: 315e 113e e048 1abc a971 3b3e 0d8a 103e
00000250: 3a4c eebd 903e be3c f5de 21be e297 8e3d
00000260: 53c4 a8bd 0387 1ebe 85b4 03be 7dd8 0a3e
00000270: 4a7e c53d 3ac5 17be 9871 813c 9221 20be
00000280: 80d4 3d3b 426e cc3d 153a 07be 8098 d7bc
00000290: 9daf e8bd 4a5e f1bd 302a 823c 21fb 173e
000002a0: 202d 60bd 71ac 123e 0543 303e 4827 2ebd
000002b0: b764 c5bd 00ac 243b 8292 943d f6f2 8a3d
000002c0: 1aae f4bd f114 233e 463d 83bd dafd b6bd
000002d0: 5870 04bd 397d 2a3e b0f5 6dbc 19c1 493e
000002e0: c0c8 25be d0ff 793c 8ca6 47bd 7148 223e
000002f0: 60e4 3f3c 405d 36bd 80cb 6ebc ac94 003d
00000300: b6ee 19be f22b d43d 20b8 1bbe ee98 cf3d
00000310: 809f 623c c070 bd3b c618 1ebe f4a3 85bd
00000320: 6614 e63d 981c 913c b6af 9c3d 925a c23d
00000330: 2c31 3f3d 5080 0fbe cb47 133e b364 073e
00000340: 00ea 163b c06a 6a3b ce8b d23d 7860 3f3d
00000350: f111 3a3e b0f0 21be fbc9 41be aca1 143d
00000360: 206c 33be 5f6c 3d3e 0bb8 2abe fa2a 9b3d
00000370: dd4d 173e 2066 67bd c022 25bd 8cfb 083d
00000380: ea1e 19be 39d5 243e 9a44 e0bd d92f 2a3e
00000390: a0aa 1e3c d4a4 063d 7476 663d 923c f13d
000003a0: 8907 153e 8078 4cbc 21a1 363e 63f8 353e
000003b0: 008f e63c 9890 c9bc 148e 79bd 8abb bb3d
000003c0: 3452 00be 33a5 213e 002b 643c 97de f5bd
000003d0: 6027 16bd 1dca cebd c54a 3ebe 3a3e 03be
000003e0: 209f 55bc ec22 0e3d 274f e4bd 23de 14be
000003f0: b97f 0e3e 0052 db3c c0b3 353d 0b53 0ebe

layers.2.1.weight f4 [16, 16, 1, 1]
-0.010685056 -0.17483369 0.14960337 -0.20111462 0.119904816 0.1441651 -0.114690095 0.024534851
-0.20684958 0.1500226 0.08767295 0.17211139 -0.12527019 -0.1595256 -0.06598431 0.1435749
-0.095627636 -0.042583525 -0.06505576 0.2453843 0.15901726 -0.24260378 -0.23351851 0.08554205
0.227343 -0.18528822 -0.12769926 -0.151423 -0.073354065 0.084252685 -0.08495796 -0.051371902
-0.09295368 -0.15534595 -0.037742913 -0.13751605 0.15244257 -0.1063163 -0.14683887 0.04452747
0.17534351 -0.21675065 0.0034527183 -0.15985101 0.10170311 0.107512414 0.24817136 0.11695409
-0.13936761 0.045952857 0.06285396 0.23656163 -0.17872977 0.22567368 0.1653435 -0.01060155
-0.05012408 0.068760544 0.034502894 0.102558345 -0.23565236 0.13440785 -0.06746289 -0.05115676
0.033755213 0.12067714 0.16395643 0.10423282 0.14944816 0.10642618 -0.22226343 -0.13084456
0.1389431 -0.08570966 -0.017373592 -0.20438656 0.13510883 0.07925123 0.24144533 0.09410402
0.051535785 0.17268056 0.18694231 -0.09718686 -0.15321586 -0.06929684 -0.12740043 0.22718996
-0.010795057 0.056490302 -0.23382878 0.21466371 -0.109651715 -0.24652097 -0.15933183 0.10361177
0.20721337 0.028227687 -0.14004594 0.005200088 -0.072513044 0.022214621 -0.2081733 -0.2392242
-0.15915132 -0.20159426 0.12483093 0.13552606 0.031412154 -0.07802236 0.04492733 -0.056858867
-0.118635 0.12227443 0.24377763 0.113529 -0.10127944 0.01558733 -0.17814642 0.10880411
0.24118 0.22500479 0.15121448 -0.24226394 -0.1708292 0.043198645 0.20302099 0.037462562
0.11711192 0.11311564 -0.10982454 0.13026574 -0.062568456 0.20080674 -0.12351996 -0.048696905
-0.20064467 0.015788198 -0.09385243 -0.11085233 -0.1292521 -0.23893839 0.17321369 0.11480564
-0.09382045 -0.065141946 0.22823158 0.04716772 0.03612718 0.028036445 0.010332197 0.19255102
-0.23089209 0.21534234 0.012659937 -0.109415084 0.1588543 0.2245492 -0.109431654 -0.013577729
-0.15936443 -0.0252254 -0.09332767 0.09930059 -0.09212327 0.17125908 -0.1244691 -0.17700198
-0.1564349 -0.057116956 0.09502295 -0.041299492 -0.15851212 0.04422486 -0.20731694 0.097565025
0.21941555 -0.032803208 0.11377534 0.04316914 -0.22239622 0.2028215 -0.18367222 -0.023139656
0.1766552 -0.08550897 0.22443631 -0.10492158 0.22368002 -0.09946352 0.17178437 0.10127106
-0.05005732 0.18602172 0.14806634 0.1661756 -0.07310328 -0.2094509 0.22903165 -0.065418184
0.03539881 0.19406956 -0.17288718 -0.020595938 0.03833127 -0.11650357 -0.048509866 0.20440233
-0.20626095 0.009028196 0.0010646284 -0.015584379 0.09777391 -0.24014774 -0.09892681 -0.07812646
-0.16897145 0.16591626 0.21656904 0.11380342 0.24023774 -0.047587454 -0.15731895 0.12723309
-0.11913428 -0.053147405 -0.09394619 -0.10814795 -0.15963444 0.08417714 0.21515241 -0.105371356
-0.045547605 -0.123541206 -0.17532054 -0.16037267 0.011631966 0.20845813 0.07581341 -0.14623359
-0.22679436 0.2048178 0.03534311 -0.22697845 -0.08950287 -0.24521503 -0.12894413 0.013972789
0.11532915 -0.035903573 -0.2076082 -0.17968789 0.15622365 -0.24527955 -0.10761675 0.20388278
00000000: 6010 2fbc 9a07 33be a031 193e fef0 4dbe
00000010: a890 f53d 04a0 133e a4e2 eabd 50fd c83c
00000020: 60d0 53be 869f 193e e08d b33d f83d 303e
00000030: d446 00be ae5a 23be c822 87bd 4c05 133e
00000040: 6cd8 c3bd 106c 2ebd f43b 85bd 0646 7b3e
00000050: 6cd5 223e 206d 78be 7a1f 6fbe ac30 af3d
00000060: 9acc 683e 32bc 3dbe 98c3 02be a20e 1bbe
00000070: a83a 96bd ac8c ac3d 70fe adbd 586b 52bd
00000080: 805e bebd 0213 1fbe 5098 1abd 02d1 0cbe
00000090: e819 1c3e 5cbc d9bd ee5c 16be 7062 363d
000000a0: 408d 333e e2f3 5dbe 0047 623b fcaf 23be
000000b0: b849 d03d 782f dc3d a220 7e3e a085 ef3d
000000c0: 62b6 0ebe 1039 3c3d 94b9 803d 363d 723e
000000d0: f004 37be 0017 673e ce4f 293e 20b2 2dbc
000000e0: e84e 4dbd 54d2 8c3d e852 0d3d 1c0a d23d
000000f0: da4e 71be 36a2 093e fc29 8abd c089 51bd
00000100: e842 0a3d 9425 f73d 32e4 273e 0478 d53d
00000110: f008 193e f8f5 d93d 0699 63be 1efc 05be
00000120: 1a47 0e3e 8c88 afbd 1053 8ebc b64a 51be
00000130: f859 0a3e 784e a23d 723d 773e 9cb9 c03d
00000140: 3017 533d 2cd3 303e ce6d 3f3e e809 c7bd
00000150: 9ee4 1cbe 80eb 8dbd 4275 02be 7ca4 683e
00000160: c0dd 30bc 6062 673d d070 6fbe ced0 5b3e
00000170: 1491 e0bd fe6f 7cbe e227 23be 6832 d43d
00000180: be2f 543e c03d e73c 3468 0fbe 8065 aa3b
00000190: b881 94bd 70fb b53c 622b 55be 30f7 74be
000001a0: 90f8 22be ba6e 4ebe 5ca7 ff3d 58c7 0a3e
000001b0: 08aa 003d 30ca 9fbd b805 383d d8e4 68bd
000001c0: e8f6 f2bd 046b fa3d d8a0 793e e481 e83d
000001d0: 986b cfbd 0062 7f3c 046c 36be b0d4 de3d
000001e0: e4f7 763e a867 663e f8d7 1a3e 0a14 78be
000001f0: daed 2ebe 10f1 303d bce4 4f3e 5872 193d
00000200: 60d8 ef3d 2ca9 e73d b0eb e0bd 6264 053e
00000210: e423 80bd 48a0 4d3e 08f8 fcbd 6876 47bd
00000220: cc75 4dbe 4056 813c b435 c0bd 8c06 e3bd
00000230: aa5a 04be 44ac 74be ee5e 313e 381f eb3d
00000240: f024 c0bd 2469 85bd 8ab5 693e f032 413d
00000250: 18fa 133d b0ac e53c 6048 293c 182c 453e
00000260: fa6e 6cbe b482 5c3e a06b 4f3c 0415 e0bd
00000270: b4aa 223e 3af0 653e b41d e0bd 2075 5ebc
00000280: 6e30 23be 80a5 cebc 9422 bfbd 1c5e cb3d
00000290: 20ab bcbd 8a5e 2f3e a8e9 febd 0240 35be
000002a0: 7830 20be 78f3 69bd 649b c23d a829 29bd
000002b0: 0051 22be 2025 353d e44a 54be 2cd0 c73d
000002c0: 78ae 603e a85c 06bd 0c03 e93d 20d2 303d
000002d0: d6bb 63be 70b0 4f3e 9214 3cbe 608f bdbc
000002e0: 1ae5 343e 541f afbd a2d2 653e 20e1 d6bd
000002f0: 600c 653e 88b3 cbbd 3ee8 2f3e 3467 cf3d
00000300: e808 4dbd 7a7c 3e3e b49e 173e f029 2a3e
00000310: 2cb7 95bd 4c7a 56be 4687 6a3e f8f9 85bd
00000320: 58fe 103d 2cba 463e 5609 31be d0b8 a8bc
00000330: 4001 1d3d 6c99 eebd 48b2 46bd d84e 513e
00000340: 1236 53be 00eb 133c 008b 8b3a a055 7fbc
00000350: b03d c83d 4ae9 75be 249a cabd c400 a0bd
00000360: da06 2dbe f4e5 293e 46c4 5d3e c411 e93d
00000370: e200 763e 10eb 42bd 3818 21be 6449 023e
00000380: acfc f3bd 18b1 59bd dc66 c0bd ac7c ddbd
00000390: 3677 23be 1065 ac3d ea50 5c3e f0cc d7bd
000003a0: 2090 3abd 2c03 fdbd 3a87 33be bc38 24be
000003b0: 0094 3e3c 0c76 553e 1044 9b3d 42be 15be
000003c0: c83c 68be c2bb 513e f0c3 103d 0a6d 68be
000003d0: 484d b7bd a619 7bbe ee09 04be 20ee 643c
000003e0: b031 ec3d a00f 13bd 3e97 54be 1a00 38be
000003f0: 18f9 1f3e 902a 7bbe 2c66 dcbd a6c6 503e

layers.2.2.weight f4 [16]
1.0 1.0 1.0 1.0 1.0 1.0 1.0 1.0
1.0 1.0 1.0 1.0 1.0 1.0 1.0 1.0
00000000: 0000 803f 0000 803f 0000 803f 0000 803f
00000010: 0000 803f 0000 803f 0000 803f 0000 803f
00000020: 0000 803f 0000 803f 0000 803f 0000 803f
00000030: 0000 803f 0000 803f 0000 803f 0000 803f

layers.2.2.bias f4 [16]
0.0 0.0 0.0 0.0 0.0 0.0 0.0 0.0
0.0 0.0 0.0 0.0 0.0 0.0 0.0 0.0
00000000: 0000 0000 0000 0000 0000 0000 0000 0000
00000010: 0000 0000 0000 0000 0000 0000 0000 0000
00000020: 0000 0000 0000 0000 0000 0000 0000 0000
00000030: 0000 0000 0000 0000 0000 0000 0000 0000

layers.2.2.running_mean f4 [16]
0.0 0.0 0.0 0.0 0.0 0.0 0.0 0.0
0.0 0.0 0.0 0.0 0.0 0.0 0.0 0.0
00000000: 0000 0000 0000 0000 0000 0000 0000 0000
00000010: 0000 0000 0000 0000 0000 0000 0000 0000
00000020: 0000 0000 0000 0000 0000 0000 0000 0000
00000030: 0000 0000 0000 0000 0000 0000 0000 0000

layers.2.2.running_var f4 [16]
1.0 1.0 1.0 1.0 1.0 1.0 1.0 1.0
1.0 1.0 1.0 1.0 1.0 1.0 1.0 1.0
00000000: 0000 803f 0000 803f 0000 803f 0000 803f
00000010: 0000 803f 0000 803f 0000 803f 0000 803f
00000020: 0000 803f 0000 803f 0000 803f 0000 803f
00000030: 0000 803f 0000 803f 0000 803f 0000 803f

layers.3.weight f4 [32, 16, 1, 1]
0.22871122 -0.21307 -0.16424313 0.056019783 0.24789813 -0.18447688 0.14644426 -0.069292575
0.09176728 0.03377065 0.113459885 -0.009842664 0.1527347 0.09573802 0.18108717 -0.14458579
0.1292645 -0.09777379 -0.05025804 0.13124567 0.2148371 -0.21216705 0.09597626 0.08781296
-0.22660765 0.04227245 -0.016628474 0.005987346 -0.20724615 -0.038890153 -0.24916694 0.026794016
0.19564703 0.041562736 0.017593354 0.16764212 0.11766982 -0.035810918 -0.013487846 0.18538833
0.23087385 0.05387941 0.09154454 -0.22554567 0.17895582 0.20044455 -0.16768321 -0.1339131
0.06758407 0.062880516 -0.013332188 -0.21498609 -0.19847041 -0.21316466 -0.035805255 0.18535027
-0.0557881 0.08035383 -0.17436025 -0.12064332 -0.043190926 0.11249465 0.04331982 -0.09104687
-0.22482368 0.058517307 0.07722181 -0.22798005 0.18144402 -0.07342115 -0.034220457 -0.24511069
-0.058336407 0.06770873 -0.025761783 0.10702366 0.18311143 -0.14469254 0.12137991 -0.23689336
0.14783481 0.03328991 -0.14547834 0.09775099 0.15987462 -0.23877972 0.20072603 -0.10989374
-0.15396309 -0.12871864 0.031802803 0.13293296 0.18908471 -0.24000663 0.17739353 -0.18785614
-0.04167828 -0.17017359 0.23486987 -0.22332704 -0.14885649 0.14872175 -0.030386358 0.23864284
0.1375981 0.24635383 0.09540349 0.132198 -0.23993161 0.013427287 0.15647116 0.16992223
-0.15778327 0.24845424 -0.17372707 0.017127424 -0.16891354 0.19094038 -0.102900386 -0.14604685
-0.17512092 0.20122245 -0.015483916 -0.009584814 -0.08525923 0.111635774 -0.21395269 0.23421127
0.16956091 -0.034882396 0.23482394 0.1635513 -0.06642127 -0.106383234 -0.20753434 -0.093605906
0.03858486 0.0059760213 -0.13719407 0.23801595 0.21199405 -0.15602967 -0.043021172 -0.19892576
0.07310292 -0.030876368 0.10841906 -0.014665514 0.24439955 -0.010596067 -0.048792362 -0.04434362
-0.20641679 0.17569232 0.24642271 -0.13026634 0.09525803 0.21800989 -0.09196401 -0.014334708
0.19534639 0.12356165 -0.18781677 -0.16462073 0.05478233 0.021403372 -0.11378965 0.098837316
0.08524951 -0.23773298 -0.135636 0.21215487 0.11552438 -0.0284065 -0.15981653 -0.01851523
0.1391778 -0.12983987 0.11855155 -0.22742951 -0.21206003 -0.05072993 -0.107789636 0.2121824
0.021421969 0.1550684 0.18688142 -0.10673222 0.1800105 -0.21779108 -0.24897736 -0.20765066
0.11532661 0.20544872 0.15167478 0.20336515 0.09215155 -0.07405329 0.016306251 -0.1892471
0.09463811 0.11500874 -0.017250925 -0.18391007 -0.0017907917 0.21267593 -0.08939034 0.18737918
-0.21555099 0.17873088 -0.15983826 -0.061658442 -0.09965286 0.20774585 0.18275678 0.2051011
0.20803136 -0.085427314 -0.06952983 -0.04423037 0.07109809 -0.12453064 0.081353664 0.16451141
0.024602354 -0.09567878 0.23817942 0.21895751 0.027489752 0.040652722 -0.2192389 -0.024463326
0.22843954 -0.00384596 0.057156235 -0.027493805 -0.046625495 -0.07082105 -0.083275944 0.20588326
0.16255823 0.10395673 -0.041946173 0.096383095 0.122523874 0.020358145 -0.1820687 -0.066153824
0.06633067 -0.07730523 0.1483416 -0.20451626 -0.1946421 0.009583771 0.24392357 -0.09302777
00000000: 4633 6a3e 062f 5abe 5a2f 28be 0075 653d
00000010: 02d9 7d3e 82e7 3cbe 7cf5 153e 44e9 8dbd
00000020: 7cf0 bb3d 1853 0a3d a85d e83d 2043 21bc
00000030: 7c66 1c3e 4c12 c43d ea6e 393e 4c0e 14be
00000040: ea5d 043e a03d c8bd 60db 4dbd 4465 063e
00000050: 42fe 5b3e 5242 59be 348f c43d 48d7 b33d
00000060: d60b 68be e025 2d3d 7038 88bc 8031 c43b
00000070: 5638 54be 484b 1fbd 9e25 7fbe 207f db3c
00000080: b257 483e b03d 2a3d f01f 903c 60aa 2b3e
00000090: e0fc f03d 78ae 12bd 20fc 5cbc 70d6 3d3e
000000a0: 326a 6c3e a8b0 5c3d b47b bb3d 72f5 66be
000000b0: 3240 373e 5641 4d3e 26b5 2bbe 8420 09be
000000c0: 8469 8a3d 80c7 803d 406f 5abc 5025 5cbe
000000d0: d43b 4bbe d647 5abe 88a8 12bd 76cc 3d3e
000000e0: 1082 64bd 8c90 a43d 7e8b 32be d813 f7bd
000000f0: f8e8 30bd 9863 e63d 2070 313d c876 babd
00000100: 2e38 66be d8af 6f3d 7826 9e3d 9a73 69be
00000110: 76cc 393e d45d 96bd c02a 0cbd 4cfe 7abe
00000120: 28f2 6ebd e0aa 8a3d 600a d3bc 382f db3d
00000130: 9081 3b3e 482a 14be 0896 f83d 2c94 72be
00000140: 0262 173e 005b 083d 46f8 14be ac31 c83d
00000150: 2cb6 233e ac82 74be 208b 4d3e f80f e1bd
00000160: 80a8 1dbe d2ce 03be a843 023d 941f 083e
00000170: 6c9f 413e 4cc4 75be a6a6 353e 5c5d 40be
00000180: d8b6 2abd fc41 2ebe ba81 703e d8af 64be
00000190: d66d 18be 844a 183e d0ec f8bc ca5e 743e
000001a0: 84e6 0c3e 2e44 7c3e e862 c33d ea5e 073e
000001b0: a2b0 75be 20fe 5b3c fa39 203e 1800 2e3e
000001c0: f091 21be ca6a 7e3e 82e5 31be d04e 8c3c
000001d0: acf7 2cbe e085 433e 70bd d2bd 4e8d 15be
000001e0: e652 33be 420d 4e3e 40b0 7dbc a009 1dbc
000001f0: 649c aebd 4ca1 e43d 6a16 5bbe 14d5 6f3e
00000200: 60a1 2d3e d8e0 0ebd b075 703e fe79 273e
00000210: e007 88bd 74df d9bd e283 54be 74b4 bfbd
00000220: 280b 1e3d 80d2 c33b 9a7c 0cbe 74ba 733e
00000230: f814 593e 3ec6 1fbe f836 30bd 32b3 4bbe
00000240: fcb6 953d 70f0 fcbc d00a de3d a047 70bc
00000250: e043 7a3e 209b 2dbc 80da 47bd a8a1 35bd
00000260: ec5e 53be b0e8 333e 3c56 7c3e 8a64 05be
00000270: a416 c33d fc3d 5f3e a057 bcbd 20dc 6abc
00000280: e208 483e e40d fd3d 0a53 40be 5692 28be
00000290: 7063 603d 2056 af3c 8c0a e9bd 386b ca3d
000002a0: 4c97 ae3d 4670 73be 2ae4 0abe 203f 593e
000002b0: 0c98 ec3d c0b4 e8bc f2a6 23be 40ad 97bc
000002c0: a084 0e3e bef4 04be 28cb f23d 48e3 68be
000002d0: 4426 59be 30ca 4fbd d0c0 dcbd 5846 593e
000002e0: 207d af3c 40ca 1e3e d85d 3f3e 6c96 dabd
000002f0: ac54 383e a004 5fbe ecf3 7ebe 60a2 54be
00000300: 5c30 ec3d 2661 523e a250 1b3e f43e 503e
00000310: f4b9 bc3d 40a9 97bd b094 853c fec9 41be
00000320: a0d1 c13d b489 eb3d d051 8dbc ec52 3cbe
00000330: 00b9 eaba b8c7 593e 4812 b7bd 54e0 3f3e
00000340: 66b9 5cbe 3a05 373e a4ac 23be 908d 7cbd
00000350: cc16 ccbd 54bb 543e 9824 3b3e 0606 523e
00000360: 2c06 553e 84f4 aebd a865 8ebd e82a 35bd
00000370: e09b 913d ec09 ffbd c09c a63d ae75 283e
00000380: e08a c93c 3cf3 c3bd 4ee5 733e 6636 603e
00000390: 3032 e13c 7883 263d 2a80 60be 5067 c8bc
000003a0: 0eec 693e 800c 7cbb a81c 6a3d b03a e1bc
000003b0: 60fa 3ebd a00a 91bd 948c aabd 10d3 523e
000003c0: aa75 263e 44e7 d43d c0cf 2bbd 8064 c53d
000003d0: cced fa3d 20c6 a63c 3870 3abe a87b 87bd
000003e0: 60d8 873d 3452 9ebd dce6 173e b66c 51be
000003f0: 4250 47be 4005 1d3c 1ac7 793e 5885 bebd

layers.5.0.weight f4 [32, 1, 3, 3]
0.17870143 -0.3034539 -0.22635365 0.21647266 0.33067742 0.17137381 -0.17508912 -0.25267202
0.18347666 0.23005667 -0.14555645 -0.17421179 -0.08847427 -0.11219522 -0.19411933 0.25038907
-0.21512124 -0.17085592 0.1911281 0.050037265 0.32955095 0.28719464 0.21669182 0.25157776
0.24015263 0.10289061 0.17946449 0.17112306 -0.27990597 -0.3116524 0.13555792 0.028929949
0.05679223 0.18879655 0.32963344 0.21976283 0.16420034 0.019460768 0.17072514 -0.04095003
-0.030684203 0.007945329 -0.06187859 -0.23374352 0.0026470125 0.33136645 0.30208066 -0.2493984
0.018533707 -0.10107407 -0.05244729 0.18841496 -0.28088078 0.26187775 0.31452337 -0.03038624
0.021443486 0.1534327 -0.1704675 0.242434 0.14676237 -0.27252066 -0.06343591 0.31465855
-0.040338367 -0.2061116 0.1273762 -0.033686996 -0.20065805 0.076441795 -0.09224586 -0.12586515
0.28537163 -0.07756582 -0.21499209 0.2651327 0.31792155 0.12283179 0.26359382 0.19944993
-0.15677135 0.2422162 -0.09537849 -0.20462248 -0.0028618574 -0.15752456 0.019168496 -0.11937003
0.24767938 -0.33282524 -0.14526328 0.17192909 -0.32027695 0.043319017 0.24656376 0.23996511
-0.14401138 -0.16168582 0.19143108 -0.2416492 -0.007460028 0.25362578 0.06565502 0.06034255
0.32771942 -0.056022733 -0.24972355 -0.15636222 0.15057638 -0.18374225 -0.11829659 0.27491
0.1297994 0.27360734 -0.30460906 -0.27750227 0.252704 0.0977433 0.22647992 0.08574709
-0.280295 0.21199754 -0.19252615 0.31451282 -0.07433674 0.26465526 0.2784033 0.0559465
0.0058313906 -0.08418 0.22380689 0.06828675 -0.2197899 0.13262156 -0.08012149 0.1688883
-0.17401218 0.21894923 0.28447637 0.08914408 0.26052615 0.012961179 -0.2513033 -0.117901415
-0.32684597 0.24719313 0.18779454 -0.15828225 -0.09431307 -0.32588536 0.12032226 -0.26735818
0.28552595 0.12455627 -0.24847528 0.17547712 -0.2634015 0.13789079 0.1652039 0.23830584
0.15340963 0.17710528 -0.02470389 0.022534937 -0.11829221 -0.00056150556 0.23068407 0.2003667
0.073244184 -0.01727596 0.3055009 -0.062187523 0.012900382 -0.025072843 0.2548152 -0.24291465
-0.06002283 0.20122603 -0.17309272 -0.24648833 -0.018106699 0.010653853 -0.24908552 0.09536037
0.25716332 -0.13598852 -0.09185779 0.121602625 -0.12536833 -0.082699776 -0.2749191 0.07778081
-0.16725954 0.019692391 0.27283266 -0.19275884 -0.23919015 0.10065082 -0.19104831 0.21231851
0.15604714 -0.29732427 0.21254316 0.10880402 0.24392805 -0.120819375 0.31755605 0.19353095
0.10860172 -0.1315465 0.006970912 0.31948218 -0.19054548 -0.022937268 0.14520574 -0.20235269
-0.17754468 0.23515323 0.021454602 0.30721864 -0.08602683 0.09008896 0.22745088 0.24348935
0.124902606 0.025596946 -0.091466874 0.26480237 0.17172447 0.18320218 -0.024042696 0.3042479
-0.223962 -0.21553457 -0.20291488 -0.20843288 0.01568845 0.06124881 -0.21977016 -0.19813856
0.12820354 -0.2719742 -0.08803193 0.19078091 0.05442539 0.010872811 -0.113660544 0.022482276
-0.063326955 -0.060066372 -0.23072013 -0.059243828 -0.18433544 -0.28058764 -0.017960757 0.017100245
00000000: 82fd 363e 4f5e 9bbe 40c9 67be 02ab 5d3e
00000010: 8d4e a93e 9e7c 2f3e 904a 33be 3a5e 81be
00000020: 4ee1 3b3e fa93 6b3e c00c 15be 9364 32be
00000030: 0032 b5bd 9cc6 e5bd 38c7 46be ff32 803e
00000040: be48 5cbe dbf4 2ebe 16b7 433e e0f3 4c3d
00000050: e7ba a83e 2d0b 933e 76e4 5d3e cdce 803e
00000060: 92ea 753e 50b8 d23d 8ac5 373e e23a 2f3e
00000070: d64f 8fbe e790 9fbe b2cf 0a3e 80fe ec3c
00000080: f89e 683d e253 413e b7c5 a83e 8209 613e
00000090: 2224 283e 306c 9f3c 92d2 2e3e 38bb 27bd
000000a0: 705d fbbc 202d 023c 6874 7dbd 765a 6fbe
000000b0: 8079 2d3b dda8 a93e 51aa 9a3e 4b62 7fbe
000000c0: 00d4 973c ecff cebd f8d2 56bd daef 403e
000000d0: 9bcf 8fbe d714 863e 3509 a13e 90ec f8bc
000000e0: 40aa af3c 761d 1d3e 088f 2ebe 9e40 783e
000000f0: e048 163e d487 8bbe b0ea 81bd ed1a a13e
00000100: d839 25bd eb0e 53be e86e 023e 60fb 09bd
00000110: 4e79 4dbe 848d 9c3d 66eb bcbd cbe2 00be
00000120: 3b1c 923e d4da 9ebd e326 5cbe 79bf 873e
00000130: 9dc6 a23e 3c8f fb3d c5f5 863e 9a3c 4c3e
00000140: ab88 20be 8607 783e cc55 c3bd 8e88 51be
00000150: 008e 3bbb 1e4e 21be 4007 9d3c 4678 f4bd
00000160: aa9f 7d3e 1268 aabe e6bf 14be 2e0e 303e
00000170: 57fb a3be 486f 313d 367b 7c3e 6ab9 753e
00000180: b877 13be f890 25be 8206 443e e372 77be
00000190: 4073 f4bb 3ddb 813e 2476 863d c029 773d
000001a0: d7ca a73e 1878 65bd 88b7 7fbe 6b1d 20be
000001b0: b230 1a3e ee26 3cbe 7c45 f2bd 01c1 8c3e
000001c0: 22ea 043e 4316 8c3e b8f5 9bbe c714 8ebe
000001d0: 6b62 813e a42d c83d 5aea 673e 2c9c af3d
000001e0: d482 8fbe e215 593e 9325 45be d307 a13e
000001f0: dc3d 98bd e580 873e e18a 8e3e 2828 653d
00000200: 4015 bf3b 9066 acbd a22d 653e ecd9 8b3d
00000210: 9b10 61be f2cd 073e bc16 a4bd 0ef1 2c3e
00000220: 4030 32be 3a34 603e e3a6 913e 2c91 b63d
00000230: af63 853e 205b 543c d3aa 80be 4c76 f1bd
00000240: 5b58 a7be 3220 7d3e 364d 403e be14 22be
00000250: 3627 c1bd 72da a6be 846b f63d 2ce3 88be
00000260: 7530 923e 5c17 ff3d 4e70 7ebe 46b0 333e
00000270: 90dc 86be 3e33 0d3e 362b 293e 7206 743e
00000280: 6a17 1d3e 165b 353e d05f cabc 309b b83c
00000290: 3043 f2bd 0032 13ba 7238 6c3e ee2c 4d3e
000002a0: 0c01 963d 5086 8dbc 9d6a 9c3e 58b8 7ebd
000002b0: 205c 533c 9065 cdbc 2377 823e 9ebe 78be
000002c0: 80da 75bd 320e 4e3e 383f 31be 7067 7cbe
000002d0: 8054 94bc 808d 2e3c 4610 7fbe 4c4c c33d
000002e0: e9aa 833e 9340 0bbe f01f bcbd cc0a f93d
000002f0: 8e60 00be 805e a9bd 32c2 8cbe 8c4b 9f3d
00000300: 1646 2bbe f051 a13c b9b0 8b3e 9362 45be
00000310: 43ee 74be 0422 ce3d 2ba2 43be 066a 593e
00000320: d2ca 1f3e e33a 98be eaa4 593e a4d4 de3d
00000330: 46c8 793e 2670 f7bd b596 a23e fa2c 463e
00000340: 946a de3d 20b4 06be 406c e43b 2b93 a33e
00000350: 5b1e 43be f0e6 bbbc d0b0 143e 8b35 4fbe
00000360: 46ce 35be 02cc 703e 90c1 af3c c34b 9d3e
00000370: d62e b0bd 9080 b83d e2e8 683e 4655 793e
00000380: f0cc ff3d b0b0 d13c fc52 bbbd 2d94 873e
00000390: 8ad8 2f3e 5a99 3b3e 30f5 c4bc 61c6 9b3e
000003a0: 4b56 65be 18b5 5cbe ebc8 4fbe 6e6f 55be
000003b0: 1085 803c 08e0 7a3d 6e0b 61be d6e4 4abe
000003c0: ca47 033e 3440 8bbe 164a b4bd 125c 433e
000003d0: 28ed 5e3d e023 323c dcc6 e8bd c02c b83c
000003e0: 90b1 81bd 2808 76bd e641 6cbe a8a9 72bd
000003f0: 6ec2 3cbe 2fa9 8fbe 7022 93bc d015 8c3c

layers.5.1.weight f4 [32, 32, 1, 1]
-0.0041255653 -0.1333541 0.088180766 0.03217052 0.14631934 -0.05309757 -0.0553775 -0.02741827
0.0755523 0.17299543 -0.112802014 0.03844604 0.09557916 -0.08137671 0.1108212 0.06891364
-0.08316846 0.13509049 0.07007447 0.13729088 -0.10575432 -0.13670114 -0.06918845 -0.14303508
0.09798814 -0.03546284 -0.111540034 -0.048823863 -0.11451647 -0.13628736 -0.14758807 0.0076787174
0.08701168 0.12546425 0.070720196 0.0244378 0.018587455 -0.06801681 0.10452919 -0.10081975
0.03469844 -0.08917367 -0.09605123 0.0829622 -0.073352605 -0.15386002 -0.027672544 -0.064542204
-0.05939509 -0.17359847 0.10074408 0.12331085 -0.07889778 0.061608136 -0.0054193437 0.13169648
-0.09500782 -0.02765581 0.0663528 -0.053317346 0.06632772 -0.06643793 -0.013923019 0.009822726
-0.122044206 -0.097320355 -0.006733045 -0.02193351 -0.12535514 0.13265635 -0.17310514 0.12516694
-0.10993449 -0.12395601 0.10873209 -0.12279092 -0.03070876 0.15077351 0.08939628 -0.14720684
-0.04799141 -0.07413418 -0.07190979 0.10464762 -0.07634613 0.04522331 0.033339232 -0.17406197
-0.101227306 0.05216579 -0.16707458 -0.08413503 0.15139993 0.17247166 0.017563924 0.103680864
0.034186453 0.072056144 -0.09923722 -0.1476141 -0.09230965 0.12634979 -0.15984826 0.08993675
-0.12500775 0.06624842 -0.03233236 -0.07176272 -0.030005261 -0.06900021 0.019523576 0.105036184
0.12984397 -0.012952447 -0.15891854 -0.07938936 -0.016578838 0.02554813 -0.07941577 0.058585256
0.09933303 0.11280848 0.16403829 -0.1312344 -0.09224636 -0.08401066 -0.014570713 0.16040967
0.06223452 0.04962124 -0.16945913 -0.030829623 0.0422263 -0.026714861 -0.031662285 0.024070784
-0.08141376 0.07288088 -0.04751174 -0.120570816 -0.11221552 -0.013672128 -0.13855033 0.17201932
-0.1398087 -0.042270526 -0.16456081 0.060190782 0.079572394 -0.001941815 0.009934813 -0.0014656782
-0.030593097 0.07770772 0.152193 0.10015498 0.068224534 0.13925047 -0.065881595 0.17473705
-0.17598785 0.008137256 -0.1620067 0.015411273 -0.12728669 -0.035448253 -0.08776443 -0.039944127
0.037353948 0.046630412 -0.101525225 0.051096246 0.1479695 -0.15506847 0.09315537 -0.014625192
0.11848323 0.04670231 -0.041302696 0.102124706 -0.063770264 -0.046756297 -0.07832187 -0.16430676
-0.16324165 -0.05573649 0.16717936 -0.122443825 0.080320254 0.15781017 -0.15306412 -0.15824027
0.0055722594 0.047996685 -0.10635603 -0.16554266 0.035834014 -0.06169588 0.10786958 0.17161776
-0.16142797 -0.17315102 0.14857276 -0.15221515 -0.026874542 -0.08991767 -0.040790856 -0.08570445
-0.022134721 0.11559512 0.05436942 -0.009018838 0.060205743 0.054629907 0.009415105 -0.047142804
-0.14378479 -0.04218982 0.05437997 -0.016349837 -0.1376861 0.17419563 0.100452706 -0.009603322
0.016599938 -0.11411051 0.12479405 -0.14728802 0.1413116 -0.11566572 -0.046114653 0.031561643
0.08891697 0.11975615 -0.0748002 0.10300015 0.04659167 -0.01578337 0.020040512 -0.07698065
-0.08613539 0.029715106 -0.04856214 -0.041238695 -0.06167108 0.023166433 0.10101353 0.108916506
-0.06369565 0.052630365 -0.032254413 -0.015776098 -0.16568252 -0.0812787 -0.08241913 0.13931458
00000000: c02f 87bb fa8d 08be 1e98 b43d 3cc5 033d
00000010: bdd4 153e d67c 59bd 84d3 62bd 489c e0bc
00000020: 2abb 9a3d b725 313e be04 e7bd 9879 1d3d
00000030: 02bf c33d d5a8 a6bd 3af6 e23d 9822 8d3d
00000040: 3a54 aabd 2955 0a3e 3483 8f3d fb95 0c3e
00000050: b995 d8bd 62fb 0bbe adb2 8dbd ca77 12be
00000060: 02ae c83d 7c41 11bd 1a6f e4bd 88fb 47bd
00000070: 9c87 eabd ea8e 0bbe 5421 17be c09d fb3b
00000080: 2e33 b23d b379 003e c0d5 903d c831 c83c
00000090: b844 983c 664c 8bbd 6613 d63d 967a cebd
000000a0: f41f 0e3d afa0 b6bd 82b6 c4bd 16e8 a93d
000000b0: e439 96bd 7b8d 1dbe 88b1 e2bc b42e 84bd
000000c0: 4448 73bd ccc3 31be ea52 ce3d 668a fc3d
000000d0: 2995 a1bd d058 7c3d c094 b1bb 71db 063e
000000e0: 7693 c2bd 708e e2bc fae3 873d 4a63 5abd
000000f0: d4d6 873d 9c10 88bd 601d 64bc 80ef 203c
00000100: 50f2 f9bd e54f c7bd e0a0 dcbb e8ad b3bc
00000110: 195d 00be 11d7 073e 7942 31be c32b 003e
00000120: 5525 e1bd a6dc fdbd eeae de3d ce79 fbbd
00000130: f090 fbbc 5f64 1a3e 6615 b73d 64bd 16be
00000140: a492 44bd a9d3 97bd 7145 93bd 7e51 d63d
00000150: 5c5b 9cbd 143c 393d b88e 083d 4d3d 32be
00000160: 4350 cfbd ccab 553d 9915 2bbe fd4e acbd
00000170: 9508 1b3e 699c 303e 38e2 8f3c a256 d43d
00000180: 1807 0c3d 2c92 933d e23c cbbd 2728 17be
00000190: d70c bdbd d761 013e 43af 23be c230 b83d
000001a0: 0802 00be 40ad 873d f06e 04bd 55f8 92bd
000001b0: 98cd f5bc fb4f 8dbd e8ef 9f3c 361d d73d
000001c0: d1f5 043e 8036 54bc 8bbb 22be e496 a2bd
000001d0: 58d0 87bc 504a d13c bca4 a2bd 18f7 6f3d
000001e0: 1e6f cb3d 2208 e73d a7f9 273e 5062 06be
000001f0: a9eb bcbd c80d acbd 00ba 6ebc 6f42 243e
00000200: a0e9 7e3d a43f 4b3d b286 2dbe 688e fcbc
00000210: 7cf5 2c3d 20d9 dabc 50b0 01bd 1830 c53c
00000220: 42bc a6bd 9242 953d ac9b 42bd d5ed f6bd
00000230: 40d1 e5bd 1001 60bc 23e0 0dbe d525 303e
00000240: 032a 0fbe dc23 2dbd a182 28be 9c8a 763d
00000250: daf6 a23d 8084 feba a0c5 223c 001c c0ba
00000260: 609e fabc 3a25 9f3d 7bd8 1b3e 0e1e cd3d
00000270: 4eb9 8b3d ad97 0e3e eeec 86bd 45ee 323e
00000280: 2936 34be 2052 053c 16e5 25be 907f 7c3c
00000290: 7157 02be 3032 11bd d6bd b3bd 749c 23bd
000002a0: 7400 193d 88ff 3e3d 75ec cfbd 4c4a 513d
000002b0: 5185 173e 45ca 1ebe 3ec8 be3d 809e 6fbc
000002c0: 56a7 f23d ec4a 3f3d 042d 29bd c226 d13d
000002d0: fc99 82bd 8883 3fbd 3767 a0bd 0840 28be
000002e0: d228 27be f24b 64bd 1131 2b3e d4c3 fabd
000002f0: f27e a43d fd98 213e d7bc 1cbe bd09 22be
00000300: 8097 b63b 2c98 443d 31d1 d9bd 0484 29be
00000310: b0c6 123d d2b4 7cbd baea dc3d 91bc 2f3e
00000320: 604d 25be 804e 31be 7523 183e 4ade 1bbe
00000330: 0028 dcbc c126 b8bd 5014 27bd d185 afbd
00000340: e053 b5bc 22bd ec3d 78b2 5e3d c0c3 13bc
00000350: 4c9a 763d 9cc3 5f3d d041 1a3c d018 41bd
00000360: 523c 13be 3ccf 2cbd 88bd 5e3d 18f0 85bc
00000370: 96fd 0cbe 5760 323e 26ba cd3d 4057 1dbc
00000380: 98fc 873c c5b2 e9bd 0694 ff3d acd2 16be
00000390: fdb3 103e 26e2 ecbd b8e2 3cbd c846 013d
000003a0: 1a1a b63d b642 f53d d930 99bd bef1 d23d
000003b0: e8d6 3e3d 204c 81bc 002c a43c 08a8 9dbd
000003c0: c067 b0bd 186d f33c 18e9 46bd e8e9 28bd
000003d0: d09a 7cbd 88c7 bd3c 2ee0 ce3d 9e0f df3d
000003e0: dd72 82bd f092 573d 341d 04bd e03c 81bc
000003f0: aea8 29be 7275 a6bd 5ccb a8bd 7ba8 0e3e

layers.5.2.weight f4 [32]
1.0 1.0 1.0 1.0 1.0 1.0 1.0 1.0
1.0 1.0 1.0 1.0 1.0 1.0 1.0 1.0
1.0 1.0 1.0 1.0 1.0 1.0 1.0 1.0
1.0 1.0 1.0 1.0 1.0 1.0 1.0 1.0
00000000: 0000 803f 0000 803f 0000 803f 0000 803f
00000010: 0000 803f 0000 803f 0000 803f 0000 803f
00000020: 0000 803f 0000 803f 0000 803f 0000 803f
00000030: 0000 803f 0000 803f 0000 803f 0000 803f
00000040: 0000 803f 0000 803f 0000 803f 0000 803f
00000050: 0000 803f 0000 803f 0000 803f 0000 803f
00000060: 0000 803f 0000 803f 0000 803f 0000 803f
00000070: 0000 803f 0000 803f 0000 803f 0000 803f

layers.5.2.bias f4 [32]
0.0 0.0 0.0 0.0 0.0 0.0 0.0 0.0
0.0 0.0 0.0 0.0 0.0 0.0 0.0 0.0
0.0 0.0 0.0 0.0 0.0 0.0 0.0 0.0
0.0 0.0 0.0 0.0 0.0 0.0 0.0 0.0
00000000: 0000 0000 0000 0000 0000 0000 0000 0000
00000010: 0000 0000 0000 0000 0000 0000 0000 0000
00000020: 0000 0000 0000 0000 0000 0000 0000 0000
00000030: 0000 0000 0000 0000 0000 0000 0000 0000
00000040: 0000 0000 0000 0000 0000 0000 0000 0000
00000050: 0000 0000 0000 0000 0000 0000 0000 0000
00000060: 0000 0000 0000 0000 0000 0000 0000 0000
00000070: 0000 0000 0000 0000 0000 0000 0000 0000

layers.5.2.running_mean f4 [32]
0.0 0.0 0.0 0.0 0.0 0.0 0.0 0.0
0.0 0.0 0.0 0.0 0.0 0.0 0.0 0.0
0.0 0.0 0.0 0.0 0.0 0.0 0.0 0.0
0.0 0.0 0.0 0.0 0.0 0.0 0.0 0.0
00000000: 0000 0000 0000 0000 0000 0000 0000 0000
00000010: 0000 0000 0000 0000 0000 0000 0000 0000
00000020: 0000 0000 0000 0000 0000 0000 0000 0000
00000030: 0000 0000 0000 0000 0000 0000 0000 0000
00000040: 0000 0000 0000 0000 0000 0000 0000 0000
00000050: 0000 0000 0000 0000 0000 0000 0000 0000
00000060: 0000 0000 0000 0000 0000 0000 0000 0000
00000070: 0000 0000 0000 0000 0000 0000 0000 0000

layers.5.2.running_var f4 [32]
1.0 1.0 1.0 1.0 1.0 1.0 1.0 1.0
1.0 1.0 1.0 1.0 1.0 1.0 1.0 1.0
1.0 1.0 1.0 1.0 1.0 1.0 1.0 1.0
1.0 1.0 1.0 1.0 1.0 1.0 1.0 1.0
00000000: 0000 803f 0000 803f 0000 803f 0000 803f
00000010: 0000 803f 0000 803f 0000 803f 0000 803f
00000020: 0000 803f 0000 803f 0000 803f 0000 803f
00000030: 0000 803f 0000 803f 0000 803f 0000 803f
00000040: 0000 803f 0000 803f 0000 803f 0000 803f
00000050: 0000 803f 0000 803f 0000 803f 0000 803f
00000060: 0000 803f 0000 803f 0000 803f 0000 803f
00000070: 0000 803f 0000 803f 0000 803f 0000 803f
