deployment_outputs/skipconnect_sepconv3x3_sepconv5x5.onnx (onnx, 28220 bytes, 13 tensors)

layers.1.0.weight f4 [16, 1, 3, 3]
000000 da f9 0e 3e 9d ff 94 3e 60 6c 19 3e ee f7 43 be
       0.13962498 0.29101267 0.14982748 -0.19137546
000010 f1 c7 90 3e 00 da 6c bb 58 81 2e 3d b3 c9 90 3e
       0.28277543 -0.003614068 0.04260382 0.28278884
000020 46 59 6a 3e c0 1f a6 bd aa 31 10 3e e8 31 7c be
       0.22885618 -0.081115246 0.14081445 -0.24628413
000030 b8 59 26 3d f5 e0 9a 3e 26 b5 3f be 02 83 6f 3e
       0.040612906 0.30249754 -0.18721446 0.2338982
000040 84 58 86 bd 00 dc d4 3b c4 eb e5 3d c0 ad ef bc
       -0.06559852 0.0064959526 0.11226609 -0.029257655
000050 eb 7e 8b be c0 b6 3f be 88 4b 8e be 78 c4 1e be
       -0.27245268 -0.18722057 -0.27792 -0.15504634
000060 d8 32 6d be 18 6e 02 3e 78 db 0e 3e 60 36 ff 3d
       -0.23163927 0.1273731 0.13950908 0.12461543
000070 54 80 9d bd c0 b6 16 bd e8 e6 50 bd 88 37 71 be
       -0.07690492 -0.036795378 -0.05100146 -0.2355634
000080 74 de a1 be 93 02 9b be b0 eb f7 3c a6 a3 2a be
       -0.3161503 -0.302754 0.030263752 -0.1666399
000090 40 c7 c2 bc 7c 2f b4 bd fe 1c 20 be 90 46 c0 bc
       -0.02377665 -0.087981194 -0.1563606 -0.023471147
0000a0 06 9b 69 3e 20 c1 03 3c b6 19 b3 bd e6 80 e3 bd
       0.22813043 0.00804165 -0.08745138 -0.1110857
0000b0 d0 b2 1c be e6 11 24 be e6 8c 12 be 92 72 42 3e
       -0.15302587 -0.16022453 -0.14311561 0.18989018
0000c0 ac 44 a0 3d 93 1f 42 be 5b 37 00 be 18 5a 4b 3d
       0.07825598 -0.18957357 -0.12521116 0.049646467
0000d0 21 7e 82 3e dc 19 8c 3d 33 46 a9 be 60 8e 5c bd
       0.25486854 0.0684087 -0.3306137 -0.053846717
0000e0 dc dc eb 3d eb 9b 02 be 5a f1 62 3e 22 d4 9f be
       0.11516735 -0.1275479 0.22162381 -0.31216532
0000f0 f8 0e 5d bd e1 2a 99 3e c4 6f c0 3d 86 50 01 be
       -0.053969353 0.29915527 0.093963176 -0.12628374
000100 ea 49 88 be 4e c3 4a be 52 84 a4 be 60 77 46 3c
       -0.26618892 -0.19801065 -0.32132202 0.012113422
000110 fd 7a a2 3e 04 13 b4 3d da a3 9d be 3e d2 02 3e
       0.31734458 0.087926894 -0.3078907 0.12775514
000120 34 1e aa bd c0 8c 90 bb 9a e8 3b 3e 0a aa 90 be
       -0.08306542 -0.00441131 0.18350449 -0.2825473
000130 b3 4f a5 be 00 fc 3e 3b d8 04 22 be c7 4f 9e be
       -0.32287368 0.0029141903 -0.1582216 -0.3092024
000140 56 3d 54 3e ea c2 77 3e 3f f5 9e be c4 08 df 3d
       0.20726523 0.24195448 -0.31046483 0.10890344
000150 e0 8e 99 3d 40 e5 ee bd 2f 1a aa be a0 e5 eb 3d
       0.07497954 -0.1166482 -0.33223101 0.11518407
000160 e0 a3 4c 3d e3 bd 2b be 87 0d 94 3e 1a a8 6f 3e
       0.04996097 -0.16771655 0.2891657 0.2340397
000170 b0 a4 09 be 1d c4 8a 3e c9 c8 9d 3e 00 9c 3c bb
       -0.1344173 0.27102748 0.3081725 -0.0028779507
000180 2b ca 6e be 00 a9 0a be 08 57 5b be 98 35 a2 be
       -0.23319308 -0.13541031 -0.21419919 -0.31681514
000190 0f c1 a1 3e d6 23 0f 3e 54 97 f7 3d 60 62 ca 3d
       0.31592605 0.13978514 0.120894104 0.09882045
0001a0 40 c6 1d 3e 0b ae 00 be ae d2 65 3e ce fa 05 be
       0.15407658 -0.12566392 0.22443649 -0.13083956
0001b0 dd 19 83 3e 12 8a 1f 3e 00 e0 ef 3c 84 0c f0 3d
       0.2560567 0.15580013 0.029281616 0.11721137
0001c0 80 b8 b4 bc 87 46 91 3e b0 da f2 bd 48 df 1d bd
       -0.022060633 0.2837412 -0.118581176 -0.038543016
0001d0 a8 55 51 be 82 af 37 3e fb ad 9d 3e a8 6d 80 be
       -0.20442832 0.17938045 0.307968 -0.2508366
0001e0 00 4b 14 3e cc 9f b0 3d 2b 4e 83 3e 05 84 92 3e
       0.14481735 0.08624229 0.25645575 0.28616348
0001f0 67 65 85 3e 28 67 a7 be c0 78 f7 bb 88 da 76 3d
       0.26053926 -0.3269589 -0.0075522363 0.060267
000200 d4 27 f8 3d 35 13 93 3e 56 9e 9e be c0 97 94 bb
       0.121169716 0.2872559 -0.30980176 -0.0045346916
000210 3b 4c 8f 3e 5e b4 07 3e 13 14 66 be 58 26 7c 3d
       0.27987847 0.13252398 -0.22468595 0.061560005
000220 c4 bd ea 3d 12 9d 47 3e b8 77 3b bd 30 7c bf 3c
       0.11461976 0.19493511 -0.04576847 0.023374647
000230 08 c0 1d be 66 bf 3d be 3b fb 09 be d2 0d 3c 3e
       -0.15405285 -0.18530044 -0.13474743 0.18364647

layers.2.0.weight f4 [16, 1, 5, 5]
000000 40 9c c3 bd e3 82 10 3e 16 d9 d9 3d 79 0d 25 3e
       -0.09551287 0.1411243 0.10637109 0.1611842
000010 71 61 39 3e cc fe 4b bd 9b 02 27 be 61 8c 3b 3e
       0.18103577 -0.04980354 -0.16309588 0.18315269
000020 68 f3 fb bc bf d9 32 be 2d 03 28 3e 50 4e f2 bc
       -0.030755714 -0.17465876 0.16407461 -0.029578358
000030 ea e1 f5 3d 6a 46 d2 3d 10 33 ae bc 60 c9 d9 bb
       0.1200598 0.10267337 -0.021264583 -0.00664632
000040 b2 3c cc 3d 73 e8 46 be 12 5a e8 3d cc e5 53 bd
       0.09972514 -0.1942461 0.113453045 -0.051732823
000050 29 df 00 3e a0 fe 20 3d 21 c2 0a 3e f3 64 af bd
       0.12585129 0.03930533 0.13550617 -0.085641764
000060 e0 28 3d be cd e5 2c be 14 cd 3b 3d 00 44 4e 3c
       -0.18472624 -0.16884537 0.045849875 0.012589455
000070 ea 62 ae 3d bf 33 16 3e a0 8a bc bb 93 5f 02 3e
       0.0851496 0.14668177 -0.00575383 0.12731771
000080 24 ef 07 be a0 b6 b7 bd 0f 35 1a 3e b1 dd 12 3e
       -0.13274819 -0.0897038 0.15059303 0.14342381
000090 e3 b1 d9 bd 6a a5 95 bd e0 86 58 bc c8 b0 08 bd
       -0.10629632 -0.07306941 -0.01321575 -0.033371717
0000a0 03 28 b3 bd 9b 76 45 be 8d 7d 49 3e 60 a6 11 be
       -0.08747866 -0.19283526 0.196768 -0.14223623
0000b0 c0 e2 fc bb a6 12 20 be d6 91 d0 3d 78 1c 03 bd
       -0.0077174604 -0.15632114 0.10184066 -0.03200957
0000c0 56 8b dc 3d 40 28 9b bd 65 0c 09 3e 90 15 94 bd
       0.10768764 -0.075760365 0.13383634 -0.07230675
0000d0 b5 bd 10 be 80 ef 3e bc fa 8c d9 bd 2d c9 06 3e
       -0.14134867 -0.011653781 -0.10622592 0.1316268
0000e0 3c a1 09 be f9 b3 48 3e 32 02 99 3d a8 43 63 bd
       -0.13440412 0.19599904 0.07471122 -0.055484444
0000f0 6f 6e 3d 3e d0 ab ae bc b8 19 21 be 5c 5a 63 3d
       0.18499158 -0.021322161 -0.15732467 0.055506095
000100 c4 2a 61 3d 18 3c cd bc ec 9f 17 3d d0 76 85 bd
       0.054972425 -0.025053069 0.037017748 -0.06516802
000110 aa d2 9f 3d 96 f6 05 be a3 24 24 be 3b 2a 45 be
       0.07803853 -0.13082346 -0.16029601 -0.19254391
000120 b2 b0 a3 3d d4 81 3c bd 22 22 e4 3d 9d 59 cf bd
       0.07992686 -0.04602225 0.11139323 -0.10124514
000130 26 60 05 be c2 50 f9 3d 90 0f d5 3c 68 ed 3a be
       -0.13024959 0.121736065 0.026008397 -0.18254626
000140 de 24 b3 3d 1d 70 20 be bf 1e 2a 3e 62 93 2b be
       0.08747266 -0.15667768 0.16613291 -0.16755441
000150 82 0b f5 3d e3 3a 40 be 2d 53 1c be fe 2e a5 3d
       0.119650856 -0.18772464 -0.15266104 0.08065604
000160 3f e1 15 3e 60 03 b1 bb a3 ea ff bd b2 68 e6 3d
       0.14636706 -0.0054020137 -0.12495925 0.11250438
000170 20 e3 0a 3c f8 ec 40 3d 14 30 44 bd f4 39 33 3d
       0.008477002 0.04710099 -0.047897413 0.04375644
000180 41 f1 30 3e 4a c1 cf 3d d8 1b 53 bd 7c d1 75 3d
       0.17279531 0.10144289 -0.051540226 0.060014233
000190 e9 18 1d 3e 54 ba 68 3d dd b4 ca bd 34 ed 09 be
       0.15341534 0.05681832 -0.09897778 -0.13469392
0001a0 25 ec 1c be 6c c5 36 bd 7a df e0 3d 14 3f 98 bd
       -0.15324457 -0.04462187 0.10980125 -0.07433906
0001b0 a2 d5 d7 3d 50 93 14 be f5 8b 1a be bb b9 04 3e
       0.10538794 -0.1450932 -0.15092452 0.12961476
0001c0 ac da 00 3d 14 bd 61 3d 8c 76 53 bd d7 eb 41 be
       0.03145854 0.05511196 -0.051626727 -0.18937622
0001d0 b6 8d 92 bd e0 18 2b 3c 20 8d 31 bc b0 90 94 bc
       -0.071559355 0.010442942 -0.0108368695 -0.018135399
0001e0 61 53 31 3e 7c 70 71 3d 68 f1 30 3d 92 17 c2 3d
       0.17316963 0.058945164 0.043198973 0.09477152
0001f0 f6 2d f5 3d 50 66 1d 3c 42 e7 a6 3d f0 66 cf bc
       0.11971657 0.009606913 0.08149578 -0.02531764
000200 3a f8 2f be 73 a2 22 3e 76 f9 98 bd e3 43 10 3e
       -0.17184535 0.15882282 -0.07469456 0.14088397
000210 a8 cc 50 bd 18 1d 31 3d 7d 06 b5 bd 8f 7d 14 3e
       -0.050976425 0.043240637 -0.08839128 0.14501022
000220 48 39 08 3d aa 74 06 be 37 31 9b bd 01 3a 1f 3e
       0.033257753 -0.13130441 -0.07577746 0.1554947
000230 23 9e 17 3e 3e d4 14 be 53 d7 03 3e ec 5d 27 3d
       0.14806418 -0.14534089 0.12875108 0.040861055
000240 31 5e 11 3e e0 48 1a bc a9 71 3b 3e 0d 8a 10 3e
       0.14196087 -0.009416789 0.18305077 0.14115162
000250 3a 4c ee bd 90 3e be 3c f5 de 21 be e2 97 8e 3d
       -0.11635633 0.023223191 -0.15807708 0.06962563
000260 53 c4 a8 bd 03 87 1e be 85 b4 03 be 7d d8 0a 3e
       -0.08240571 -0.1548119 -0.12861831 0.13559146
000270 4a 7e c5 3d 3a c5 17 be 98 71 81 3c 92 21 20 be
       0.09643228 -0.1482133 0.015801236 -0.15637806
000280 80 d4 3d 3b 42 6e cc 3d 15 3a 07 be 80 98 d7 bc
       0.0028965771 0.099819675 -0.1320575 -0.026317835
000290 9d af e8 bd 4a 5e f1 bd 30 2a 82 3c 21 fb 17 3e
       -0.113616206 -0.11785562 0.015889257 0.14841892
0002a0 20 2d 60 bd 71 ac 12 3e 05 43 30 3e 48 27 2e bd
       -0.054730535 0.14323594 0.17213066 -0.04251793
0002b0 b7 64 c5 bd 00 ac 24 3b 82 92 94 3d f6 f2 8a 3d
       -0.096383505 0.0025126934 0.07254507 0.06784622
0002c0 1a ae f4 bd f1 14 23 3e 46 3d 83 bd da fd b6 bd
       -0.1194727 0.15925957 -0.06408171 -0.08935137
0002d0 58 70 04 bd 39 7d 2a 3e b0 f5 6d bc 19 c1 49 3e
       -0.0323337 0.16649331 -0.0145239085 0.19702567
0002e0 c0 c8 25 be d0 ff 79 3c 8c a6 47 bd 71 48 22 3e
       -0.16189861 0.015258744 -0.048742816 0.15847947
0002f0 60 e4 3f 3c 40 5d 36 bd 80 cb 6e bc ac 94 00 3d
       0.011712164 -0.044522524 -0.014574885 0.031391785
000300 b6 ee 19 be f2 2b d4 3d 20 b8 1b be ee 98 cf 3d
       -0.15032467 0.103599444 -0.15206957 0.10136591
000310 80 9f 62 3c c0 70 bd 3b c6 18 1e be f4 a3 85 bd
       0.013831973 0.005781263 -0.15439138 -0.06525412
000320 66 14 e6 3d 98 1c 91 3c b6 af 9c 3d 92 5a c2 3d
       0.112343594 0.01771383 0.07650702 0.09489931
000330 2c 31 3f 3d 50 80 0f be cb 47 13 3e b3 64 07 3e
       0.046677753 -0.14013791 0.14382856 0.13222007
000340 00 ea 16 3b c0 6a 6a 3b ce 8b d2 3d 78 60 3f 3d
       0.0023027658 0.0035769194 0.10280572 0.04672286
000350 f1 11 3a 3e b0 f0 21 be fb c9 41 be ac a1 14 3d
       0.18170907 -0.15814471 -0.18924706 0.036286995
000360 20 6c 33 be 5f 6c 3d 3e 0b b8 2a be fa 2a 9b 3d
       -0.17521715 0.18498372 -0.1667177 0.075765565
000370 dd 4d 17 3e 20 66 67 bd c0 22 25 bd 8c fb 08 3d
       0.14775796 -0.05649388 -0.040316343 0.03344302
000380 ea 1e 19 be 39 d5 24 3e 9a 44 e0 bd d9 2f 2a 3e
       -0.14953199 0.16096963 -0.10950585 0.16619815
000390 a0 aa 1e 3c d4 a4 06 3d 74 76 66 3d 92 3c f1 3d
       0.009684235 0.032872036 0.05626531 0.11779131
0003a0 89 07 15 3e 80 78 4c bc 21 a1 36 3e 63 f8 35 3e
       0.14553656 -0.012479901 0.17834903 0.17770533
0003b0 00 8f e6 3c 98 90 c9 bc 14 8e 79 bd 8a bb bb 3d
       0.02814436 -0.02460508 -0.060926512 0.091666296
0003c0 34 52 00 be 33 a5 21 3e 00 2b 64 3c 97 de f5 bd
       -0.12531358 0.15785675 0.013926268 -0.12005346
0003d0 60 27 16 bd 1d ca ce bd c5 4a 3e be 3a 3e 03 be
       -0.036658645 -0.10097144 -0.1858321 -0.12816706
0003e0 20 9f 55 bc ec 22 0e 3d 27 4f e4 bd 23 de 14 be
       -0.013038427 0.034701273 -0.111479096 -0.14537863
0003f0 b9 7f 0e 3e 00 52 db 3c c0 b3 35 3d 0b 53 0e be
       0.1391591 0.0267725 0.044360876 -0.13898866

layers.3.weight f4 [32, 16, 1, 1]
000000 46 33 6a 3e 06 2f 5a be 5a 2f 28 be 00 75 65 3d
       0.22871122 -0.21307 -0.16424313 0.056019783
000010 02 d9 7d 3e 82 e7 3c be 7c f5 15 3e 44 e9 8d bd
       0.24789813 -0.18447688 0.14644426 -0.069292575
000020 7c f0 bb 3d 18 53 0a 3d a8 5d e8 3d 20 43 21 bc
       0.09176728 0.03377065 0.113459885 -0.009842664
000030 7c 66 1c 3e 4c 12 c4 3d ea 6e 39 3e 4c 0e 14 be
       0.1527347 0.09573802 0.18108717 -0.14458579
000040 ea 5d 04 3e a0 3d c8 bd 60 db 4d bd 44 65 06 3e
       0.1292645 -0.09777379 -0.05025804 0.13124567
000050 42 fe 5b 3e 52 42 59 be 34 8f c4 3d 48 d7 b3 3d
       0.2148371 -0.21216705 0.09597626 0.08781296
000060 d6 0b 68 be e0 25 2d 3d 70 38 88 bc 80 31 c4 3b
       -0.22660765 0.04227245 -0.016628474 0.005987346
000070 56 38 54 be 48 4b 1f bd 9e 25 7f be 20 7f db 3c
       -0.20724615 -0.038890153 -0.24916694 0.026794016
000080 b2 57 48 3e b0 3d 2a 3d f0 1f 90 3c 60 aa 2b 3e
       0.19564703 0.041562736 0.017593354 0.16764212
000090 e0 fc f0 3d 78 ae 12 bd 20 fc 5c bc 70 d6 3d 3e
       0.11766982 -0.035810918 -0.013487846 0.18538833
0000a0 32 6a 6c 3e a8 b0 5c 3d b4 7b bb 3d 72 f5 66 be
       0.23087385 0.05387941 0.09154454 -0.22554567
0000b0 32 40 37 3e 56 41 4d 3e 26 b5 2b be 84 20 09 be
       0.17895582 0.20044455 -0.16768321 -0.1339131
0000c0 84 69 8a 3d 80 c7 80 3d 40 6f 5a bc 50 25 5c be
       0.06758407 0.062880516 -0.013332188 -0.21498609
0000d0 d4 3b 4b be d6 47 5a be 88 a8 12 bd 76 cc 3d 3e
       -0.19847041 -0.21316466 -0.035805255 0.18535027
0000e0 10 82 64 bd 8c 90 a4 3d 7e 8b 32 be d8 13 f7 bd
       -0.0557881 0.08035383 -0.17436025 -0.12064332
0000f0 f8 e8 30 bd 98 63 e6 3d 20 70 31 3d c8 76 ba bd
       -0.043190926 0.11249465 0.04331982 -0.09104687
000100 2e 38 66 be d8 af 6f 3d 78 26 9e 3d 9a 73 69 be
       -0.22482368 0.058517307 0.07722181 -0.22798005
000110 76 cc 39 3e d4 5d 96 bd c0 2a 0c bd 4c fe 7a be
       0.18144402 -0.07342115 -0.034220457 -0.24511069
000120 28 f2 6e bd e0 aa 8a 3d 60 0a d3 bc 38 2f db 3d
       -0.058336407 0.06770873 -0.025761783 0.10702366
000130 90 81 3b 3e 48 2a 14 be 08 96 f8 3d 2c 94 72 be
       0.18311143 -0.14469254 0.12137991 -0.23689336
000140 02 62 17 3e 00 5b 08 3d 46 f8 14 be ac 31 c8 3d
       0.14783481 0.03328991 -0.14547834 0.09775099
000150 2c b6 23 3e ac 82 74 be 20 8b 4d 3e f8 0f e1 bd
       0.15987462 -0.23877972 0.20072603 -0.10989374
000160 80 a8 1d be d2 ce 03 be a8 43 02 3d 94 1f 08 3e
       -0.15396309 -0.12871864 0.031802803 0.13293296
000170 6c 9f 41 3e 4c c4 75 be a6 a6 35 3e 5c 5d 40 be
       0.18908471 -0.24000663 0.17739353 -0.18785614
000180 d8 b6 2a bd fc 41 2e be ba 81 70 3e d8 af 64 be
       -0.04167828 -0.17017359 0.23486987 -0.22332704
000190 d6 6d 18 be 84 4a 18 3e d0 ec f8 bc ca 5e 74 3e
       -0.14885649 0.14872175 -0.030386358 0.23864284
0001a0 84 e6 0c 3e 2e 44 7c 3e e8 62 c3 3d ea 5e 07 3e
       0.1375981 0.24635383 0.09540349 0.132198
0001b0 a2 b0 75 be 20 fe 5b 3c fa 39 20 3e 18 00 2e 3e
       -0.23993161 0.013427287 0.15647116 0.16992223
0001c0 f0 91 21 be ca 6a 7e 3e 82 e5 31 be d0 4e 8c 3c
       -0.15778327 0.24845424 -0.17372707 0.017127424
0001d0 ac f7 2c be e0 85 43 3e 70 bd d2 bd 4e 8d 15 be
       -0.16891354 0.19094038 -0.102900386 -0.14604685
0001e0 e6 52 33 be 42 0d 4e 3e 40 b0 7d bc a0 09 1d bc
       -0.17512092 0.20122245 -0.015483916 -0.009584814
0001f0 64 9c ae bd 4c a1 e4 3d 6a 16 5b be 14 d5 6f 3e
       -0.08525923 0.111635774 -0.21395269 0.23421127
000200 60 a1 2d 3e d8 e0 0e bd b0 75 70 3e fe 79 27 3e
       0.16956091 -0.034882396 0.23482394 0.1635513
000210 e0 07 88 bd 74 df d9 bd e2 83 54 be 74 b4 bf bd
       -0.06642127 -0.106383234 -0.20753434 -0.093605906
000220 28 0b 1e 3d 80 d2 c3 3b 9a 7c 0c be 74 ba 73 3e
       0.03858486 0.0059760213 -0.13719407 0.23801595
000230 f8 14 59 3e 3e c6 1f be f8 36 30 bd 32 b3 4b be
       0.21199405 -0.15602967 -0.043021172 -0.19892576
000240 fc b6 95 3d 70 f0 fc bc d0 0a de 3d a0 47 70 bc
       0.07310292 -0.030876368 0.10841906 -0.014665514
000250 e0 43 7a 3e 20 9b 2d bc 80 da 47 bd a8 a1 35 bd
       0.24439955 -0.010596067 -0.048792362 -0.04434362
000260 ec 5e 53 be b0 e8 33 3e 3c 56 7c 3e 8a 64 05 be
       -0.20641679 0.17569232 0.24642271 -0.13026634
000270 a4 16 c3 3d fc 3d 5f 3e a0 57 bc bd 20 dc 6a bc
       0.09525803 0.21800989 -0.09196401 -0.014334708
000280 e2 08 48 3e e4 0d fd 3d 0a 53 40 be 56 92 28 be
       0.19534639 0.12356165 -0.18781677 -0.16462073
000290 70 63 60 3d 20 56 af 3c 8c 0a e9 bd 38 6b ca 3d
       0.05478233 0.021403372 -0.11378965 0.098837316
0002a0 4c 97 ae 3d 46 70 73 be 2a e4 0a be 20 3f 59 3e
       0.08524951 -0.23773298 -0.135636 0.21215487
0002b0 0c 98 ec 3d c0 b4 e8 bc f2 a6 23 be 40 ad 97 bc
       0.11552438 -0.0284065 -0.15981653 -0.01851523
0002c0 a0 84 0e 3e be f4 04 be 28 cb f2 3d 48 e3 68 be
       0.1391778 -0.12983987 0.11855155 -0.22742951
0002d0 44 26 59 be 30 ca 4f bd d0 c0 dc bd 58 46 59 3e
       -0.21206003 -0.05072993 -0.107789636 0.2121824
0002e0 20 7d af 3c 40 ca 1e 3e d8 5d 3f 3e 6c 96 da bd
       0.021421969 0.1550684 0.18688142 -0.10673222
0002f0 ac 54 38 3e a0 04 5f be ec f3 7e be 60 a2 54 be
       0.1800105 -0.21779108 -0.24897736 -0.20765066
000300 5c 30 ec 3d 26 61 52 3e a2 50 1b 3e f4 3e 50 3e
       0.11532661 0.20544872 0.15167478 0.20336515
000310 f4 b9 bc 3d 40 a9 97 bd b0 94 85 3c fe c9 41 be
       0.09215155 -0.07405329 0.016306251 -0.1892471
000320 a0 d1 c1 3d b4 89 eb 3d d0 51 8d bc ec 52 3c be
       0.09463811 0.11500874 -0.017250925 -0.18391007
000330 00 b9 ea ba b8 c7 59 3e 48 12 b7 bd 54 e0 3f 3e
       -0.0017907917 0.21267593 -0.08939034 0.18737918
000340 66 b9 5c be 3a 05 37 3e a4 ac 23 be 90 8d 7c bd
       -0.21555099 0.17873088 -0.15983826 -0.061658442
000350 cc 16 cc bd 54 bb 54 3e 98 24 3b 3e 06 06 52 3e
       -0.09965286 0.20774585 0.18275678 0.2051011
000360 2c 06 55 3e 84 f4 ae bd a8 65 8e bd e8 2a 35 bd
       0.20803136 -0.085427314 -0.06952983 -0.04423037
000370 e0 9b 91 3d ec 09 ff bd c0 9c a6 3d ae 75 28 3e
       0.07109809 -0.12453064 0.081353664 0.16451141
000380 e0 8a c9 3c 3c f3 c3 bd 4e e5 73 3e 66 36 60 3e
       0.024602354 -0.09567878 0.23817942 0.21895751
000390 30 32 e1 3c 78 83 26 3d 2a 80 60 be 50 67 c8 bc
       0.027489752 0.040652722 -0.2192389 -0.024463326
0003a0 0e ec 69 3e 80 0c 7c bb a8 1c 6a 3d b0 3a e1 bc
       0.22843954 -0.00384596 0.057156235 -0.027493805
0003b0 60 fa 3e bd a0 0a 91 bd 94 8c aa bd 10 d3 52 3e
       -0.046625495 -0.07082105 -0.083275944 0.20588326
0003c0 aa 75 26 3e 44 e7 d4 3d c0 cf 2b bd 80 64 c5 3d
       0.16255823 0.10395673 -0.041946173 0.096383095
0003d0 cc ed fa 3d 20 c6 a6 3c 38 70 3a be a8 7b 87 bd
       0.122523874 0.020358145 -0.1820687 -0.066153824
0003e0 60 d8 87 3d 34 52 9e bd dc e6 17 3e b6 6c 51 be
       0.06633067 -0.07730523 0.1483416 -0.20451626
0003f0 42 50 47 be 40 05 1d 3c 1a c7 79 3e 58 85 be bd
       -0.1946421 0.009583771 0.24392357 -0.09302777

layers.5.0.weight f4 [32, 1, 3, 3]
000000 82 fd 36 3e 4f 5e 9b be 40 c9 67 be 02 ab 5d 3e
       0.17870143 -0.3034539 -0.22635365 0.21647266
000010 8d 4e a9 3e 9e 7c 2f 3e 90 4a 33 be 3a 5e 81 be
       0.33067742 0.17137381 -0.17508912 -0.25267202
000020 4e e1 3b 3e fa 93 6b 3e c0 0c 15 be 93 64 32 be
       0.18347666 0.23005667 -0.14555645 -0.17421179
000030 00 32 b5 bd 9c c6 e5 bd 38 c7 46 be ff 32 80 3e
       -0.08847427 -0.11219522 -0.19411933 0.25038907
000040 be 48 5c be db f4 2e be 16 b7 43 3e e0 f3 4c 3d
       -0.21512124 -0.17085592 0.1911281 0.050037265
000050 e7 ba a8 3e 2d 0b 93 3e 76 e4 5d 3e cd ce 80 3e
       0.32955095 0.28719464 0.21669182 0.25157776
000060 92 ea 75 3e 50 b8 d2 3d 8a c5 37 3e e2 3a 2f 3e
       0.24015263 0.10289061 0.17946449 0.17112306
000070 d6 4f 8f be e7 90 9f be b2 cf 0a 3e 80 fe ec 3c
       -0.27990597 -0.3116524 0.13555792 0.028929949
000080 f8 9e 68 3d e2 53 41 3e b7 c5 a8 3e 82 09 61 3e
       0.05679223 0.18879655 0.32963344 0.21976283
000090 22 24 28 3e 30 6c 9f 3c 92 d2 2e 3e 38 bb 27 bd
       0.16420034 0.019460768 0.17072514 -0.04095003
0000a0 70 5d fb bc 20 2d 02 3c 68 74 7d bd 76 5a 6f be
       -0.030684203 0.007945329 -0.06187859 -0.23374352
0000b0 80 79 2d 3b dd a8 a9 3e 51 aa 9a 3e 4b 62 7f be
       0.0026470125 0.33136645 0.30208066 -0.2493984
0000c0 00 d4 97 3c ec ff ce bd f8 d2 56 bd da ef 40 3e
       0.018533707 -0.10107407 -0.05244729 0.18841496
0000d0 9b cf 8f be d7 14 86 3e 35 09 a1 3e 90 ec f8 bc
       -0.28088078 0.26187775 0.31452337 -0.03038624
0000e0 40 aa af 3c 76 1d 1d 3e 08 8f 2e be 9e 40 78 3e
       0.021443486 0.1534327 -0.1704675 0.242434
0000f0 e0 48 16 3e d4 87 8b be b0 ea 81 bd ed 1a a1 3e
       0.14676237 -0.27252066 -0.06343591 0.31465855
000100 d8 39 25 bd eb 0e 53 be e8 6e 02 3e 60 fb 09 bd
       -0.040338367 -0.2061116 0.1273762 -0.033686996
000110 4e 79 4d be 84 8d 9c 3d 66 eb bc bd cb e2 00 be
       -0.20065805 0.076441795 -0.09224586 -0.12586515
000120 3b 1c 92 3e d4 da 9e bd e3 26 5c be 79 bf 87 3e
       0.28537163 -0.07756582 -0.21499209 0.2651327
000130 9d c6 a2 3e 3c 8f fb 3d c5 f5 86 3e 9a 3c 4c 3e
       0.31792155 0.12283179 0.26359382 0.19944993
000140 ab 88 20 be 86 07 78 3e cc 55 c3 bd 8e 88 51 be
       -0.15677135 0.2422162 -0.09537849 -0.20462248
000150 00 8e 3b bb 1e 4e 21 be 40 07 9d 3c 46 78 f4 bd
       -0.0028618574 -0.15752456 0.019168496 -0.11937003
000160 aa 9f 7d 3e 12 68 aa be e6 bf 14 be 2e 0e 30 3e
       0.24767938 -0.33282524 -0.14526328 0.17192909
000170 57 fb a3 be 48 6f 31 3d 36 7b 7c 3e 6a b9 75 3e
       -0.32027695 0.043319017 0.24656376 0.23996511
000180 b8 77 13 be f8 90 25 be 82 06 44 3e e3 72 77 be
       -0.14401138 -0.16168582 0.19143108 -0.2416492
000190 40 73 f4 bb 3d db 81 3e 24 76 86 3d c0 29 77 3d
       -0.007460028 0.25362578 0.06565502 0.06034255
0001a0 d7 ca a7 3e 18 78 65 bd 88 b7 7f be 6b 1d 20 be
       0.32771942 -0.056022733 -0.24972355 -0.15636222
0001b0 b2 30 1a 3e ee 26 3c be 7c 45 f2 bd 01 c1 8c 3e
       0.15057638 -0.18374225 -0.11829659 0.27491
0001c0 22 ea 04 3e 43 16 8c 3e b8 f5 9b be c7 14 8e be
       0.1297994 0.27360734 -0.30460906 -0.27750227
0001d0 6b 62 81 3e a4 2d c8 3d 5a ea 67 3e 2c 9c af 3d
       0.252704 0.0977433 0.22647992 0.08574709
0001e0 d4 82 8f be e2 15 59 3e 93 25 45 be d3 07 a1 3e
       -0.280295 0.21199754 -0.19252615 0.31451282
0001f0 dc 3d 98 bd e5 80 87 3e e1 8a 8e 3e 28 28 65 3d
       -0.07433674 0.26465526 0.2784033 0.0559465
000200 40 15 bf 3b 90 66 ac bd a2 2d 65 3e ec d9 8b 3d
       0.0058313906 -0.08418 0.22380689 0.06828675
000210 9b 10 61 be f2 cd 07 3e bc 16 a4 bd 0e f1 2c 3e
       -0.2197899 0.13262156 -0.08012149 0.1688883
000220 40 30 32 be 3a 34 60 3e e3 a6 91 3e 2c 91 b6 3d
       -0.17401218 0.21894923 0.28447637 0.08914408
000230 af 63 85 3e 20 5b 54 3c d3 aa 80 be 4c 76 f1 bd
       0.26052615 0.012961179 -0.2513033 -0.117901415
000240 5b 58 a7 be 32 20 7d 3e 36 4d 40 3e be 14 22 be
       -0.32684597 0.24719313 0.18779454 -0.15828225
000250 36 27 c1 bd 72 da a6 be 84 6b f6 3d 2c e3 88 be
       -0.09431307 -0.32588536 0.12032226 -0.26735818
000260 75 30 92 3e 5c 17 ff 3d 4e 70 7e be 46 b0 33 3e
       0.28552595 0.12455627 -0.24847528 0.17547712
000270 90 dc 86 be 3e 33 0d 3e 36 2b 29 3e 72 06 74 3e
       -0.2634015 0.13789079 0.1652039 0.23830584
000280 6a 17 1d 3e 16 5b 35 3e d0 5f ca bc 30 9b b8 3c
       0.15340963 0.17710528 -0.02470389 0.022534937
000290 30 43 f2 bd 00 32 13 ba 72 38 6c 3e ee 2c 4d 3e
       -0.11829221 -0.00056150556 0.23068407 0.2003667
0002a0 0c 01 96 3d 50 86 8d bc 9d 6a 9c 3e 58 b8 7e bd
       0.073244184 -0.01727596 0.3055009 -0.062187523
0002b0 20 5c 53 3c 90 65 cd bc 23 77 82 3e 9e be 78 be
       0.012900382 -0.025072843 0.2548152 -0.24291465
0002c0 80 da 75 bd 32 0e 4e 3e 38 3f 31 be 70 67 7c be
       -0.06002283 0.20122603 -0.17309272 -0.24648833
0002d0 80 54 94 bc 80 8d 2e 3c 46 10 7f be 4c 4c c3 3d
       -0.018106699 0.010653853 -0.24908552 0.09536037
0002e0 e9 aa 83 3e 93 40 0b be f0 1f bc bd cc 0a f9 3d
       0.25716332 -0.13598852 -0.09185779 0.121602625
0002f0 8e 60 00 be 80 5e a9 bd 32 c2 8c be 8c 4b 9f 3d
       -0.12536833 -0.082699776 -0.2749191 0.07778081
000300 16 46 2b be f0 51 a1 3c b9 b0 8b 3e 93 62 45 be
       -0.16725954 0.019692391 0.27283266 -0.19275884
000310 43 ee 74 be 04 22 ce 3d 2b a2 43 be 06 6a 59 3e
       -0.23919015 0.10065082 -0.19104831 0.21231851
000320 d2 ca 1f 3e e3 3a 98 be ea a4 59 3e a4 d4 de 3d
       0.15604714 -0.29732427 0.21254316 0.10880402
000330 46 c8 79 3e 26 70 f7 bd b5 96 a2 3e fa 2c 46 3e
       0.24392805 -0.120819375 0.31755605 0.19353095
000340 94 6a de 3d 20 b4 06 be 40 6c e4 3b 2b 93 a3 3e
       0.10860172 -0.1315465 0.006970912 0.31948218
000350 5b 1e 43 be f0 e6 bb bc d0 b0 14 3e 8b 35 4f be
       -0.19054548 -0.022937268 0.14520574 -0.20235269
000360 46 ce 35 be 02 cc 70 3e 90 c1 af 3c c3 4b 9d 3e
       -0.17754468 0.23515323 0.021454602 0.30721864
000370 d6 2e b0 bd 90 80 b8 3d e2 e8 68 3e 46 55 79 3e
       -0.08602683 0.09008896 0.22745088 0.24348935
000380 f0 cc ff 3d b0 b0 d1 3c fc 52 bb bd 2d 94 87 3e
       0.124902606 0.025596946 -0.091466874 0.26480237
000390 8a d8 2f 3e 5a 99 3b 3e 30 f5 c4 bc 61 c6 9b 3e
       0.17172447 0.18320218 -0.024042696 0.3042479
0003a0 4b 56 65 be 18 b5 5c be eb c8 4f be 6e 6f 55 be
       -0.223962 -0.21553457 -0.20291488 -0.20843288
0003b0 10 85 80 3c 08 e0 7a 3d 6e 0b 61 be d6 e4 4a be
       0.01568845 0.06124881 -0.21977016 -0.19813856
0003c0 ca 47 03 3e 34 40 8b be 16 4a b4 bd 12 5c 43 3e
       0.12820354 -0.2719742 -0.08803193 0.19078091
0003d0 28 ed 5e 3d e0 23 32 3c dc c6 e8 bd c0 2c b8 3c
       0.05442539 0.010872811 -0.113660544 0.022482276
0003e0 90 b1 81 bd 28 08 76 bd e6 41 6c be a8 a9 72 bd
       -0.063326955 -0.060066372 -0.23072013 -0.059243828
0003f0 6e c2 3c be 2f a9 8f be 70 22 93 bc d0 15 8c 3c
       -0.18433544 -0.28058764 -0.017960757 0.017100245

layers.7.weight f4 [64, 32, 1, 1]
000000 a6 a4 9f bd 7d cb 1b 3e 26 f8 95 3d 20 d0 da 3b
       -0.07795076 0.15214343 0.07322721 0.0066776425
000010 38 77 9d bc 93 9f 25 3e e1 f2 b7 bd 7e 7d a7 3d
       -0.019221887 0.16174154 -0.08981872 0.081782326
000020 f4 35 7a 3d 59 de 30 3e d0 bd 60 bc df 32 1f be
       0.06108661 0.17272319 -0.01371713 -0.1554675
000030 81 f3 01 3e d8 d2 b2 3c ea c8 11 be a4 83 55 bd
       0.12690546 0.021829054 -0.14236799 -0.052127495
000040 a6 59 f1 3d 4e 4d ee bd 33 92 20 3e 1e 03 bc 3d
       0.11784677 -0.116358384 0.1568077 0.09180282
000050 cb aa 86 bd ad 4f 25 be 43 fa 0e be 2f b9 29 3e
       -0.06575545 -0.16143675 -0.13962655 0.16574548
000060 3e 11 34 be 95 09 19 be 42 3f fa 3d 80 bb 6d 3c
       -0.17584702 -0.14945062 0.12219097 0.0145100355
000070 a0 ea 1d bc c5 9b 14 3e bf 54 2c 3e 1e d2 ee bd
       -0.0096384585 0.14512546 0.16829203 -0.116611704
000080 ad 7c 0f 3e 88 31 51 3d 60 48 eb 3c 6a 8b d5 3d
       0.14012404 0.051072627 0.028721035 0.10426982
000090 1a f6 8b 3d 50 3c 9d bc 0e a3 10 be 80 2a 37 3d
       0.068340495 -0.019193798 -0.141247 0.044718266
0000a0 f8 e4 43 bd 3c d0 aa bd a6 1b da 3d 63 43 18 be
       -0.047825783 -0.08340499 0.10649805 -0.14869456
0000b0 a0 80 cb 3c 5a 23 97 3d 9a c9 0b be 98 39 ed 3c
       0.024841607 0.0737979 -0.13651124 0.028958127
0000c0 40 36 97 bc 9b e0 1e 3e e0 c3 2c bd 00 2d 5f ba
       -0.018458486 0.15515368 -0.04217899 -0.00085134804
0000d0 ac 21 17 be d3 49 87 bd a0 a0 09 bc 89 d0 1e 3e
       -0.14758939 -0.06605878 -0.008400112 0.15509237
0000e0 64 bd 00 bd 38 e7 00 bd b4 f1 30 3d 86 fe f5 3d
       -0.031430617 -0.031470507 0.043199256 0.12011437
0000f0 e0 f0 74 3d 60 34 59 3c 40 43 0f 3b 12 92 a6 3d
       0.05980003 0.013257116 0.0021860152 0.081333295
000100 3c ef 4b 3d fe 2c 73 bd d8 34 47 3d 84 8f 16 be
       0.0497887 -0.05936908 0.04863438 -0.14703184
000110 d0 5b 32 3d 11 20 86 bd 47 13 25 3e cb 0e 24 be
       0.04354459 -0.06549085 0.16120635 -0.16021268
000120 c0 40 cb 3c 8b 5a 25 3e c1 08 29 be f3 7c a6 bd
       0.024811149 0.1614782 -0.16507246 -0.08129301
000130 ce e3 dc 3d 10 e8 2c be 56 0e 7e bd 51 15 0d be
       0.10785638 -0.168854 -0.06202539 -0.13777663
000140 b9 c9 06 3e 22 a5 5b bd b3 05 2b 3e 55 17 1a be
       0.13162889 -0.05362428 0.16701393 -0.15047963
000150 c0 b8 1b be ca 8d f1 3d f7 db db bd c6 39 c7 3d
       -0.15207195 0.11794622 -0.10735314 0.09727816
000160 a0 88 47 bc 60 fc 8f 3c 08 a9 e8 3c d0 29 e5 bc
       -0.01217857 0.017576396 0.028400913 -0.02797404
000170 3e 67 bf 3d ef cc 07 3e e0 65 4d 3c 08 6c d3 bc
       0.09345864 0.1326177 0.012536496 -0.02580835
000180 40 b6 65 3c dc fd 05 3d 6d fc a6 bd 24 7c 12 3d
       0.014020503 0.032712802 -0.08153615 0.03576292
000190 fa ae 58 bd 5c b6 37 3d 21 55 30 be 70 db ac bd
       -0.052901246 0.044851646 -0.17219974 -0.08440292
0001a0 fd b4 aa bd 34 fa 3d 3d f0 4b bd bd 05 d5 08 3e
       -0.08335302 0.04638119 -0.092429996 0.1336251
0001b0 e3 0e 0e 3e 77 77 0a 3e 42 db fa bd c4 e1 85 3d
       0.13872866 0.13522135 -0.12248851 0.06537202
0001c0 92 cd fb 3d 67 60 2e be 03 28 1e 3e ab 0d 04 3e
       0.12295069 -0.17028962 0.15444951 0.12895839
0001d0 d6 62 5b bd 0b 99 32 be 23 ce 1d 3e 5e a6 d0 3d
       -0.053561054 -0.17441194 0.15410666 0.10187982
0001e0 c6 1a a9 3d c0 62 bc 3b 19 77 0f be f3 58 14 3e
       0.0825706 0.0057490766 -0.14010276 0.14487056
0001f0 4d eb 29 be 10 64 4b 3c a7 71 c2 bd 3c a4 c8 bd
       -0.16593666 0.0124139935 -0.09494334 -0.0979695
000200 c4 5f 64 bd b8 ef cf bc b2 b0 72 bd 7a 55 a5 bd
       -0.05575539 -0.025382861 -0.05925054 -0.08072944
000210 1a bd ae 3d 2b a2 ad bd 0e 6f 31 be 3b 40 2b 3e
       0.08532162 -0.08478197 -0.1732752 0.1672372
000220 a5 b2 13 3e da 9a f4 3d f2 3e d0 bd 0a b1 ff bd
       0.14423616 0.11943598 -0.10168256 -0.124849394
000230 8e b4 9d 3d d8 73 ca bd 55 af 2f 3e 6f 0d 15 3e
       0.07700454 -0.09885377 0.17156728 0.14555906
000240 2d 9e e0 bd fa c3 f7 3d 3c f3 0f be 9e 19 9f 3d
       -0.1096767 0.120979264 -0.1405763 0.07768558
000250 60 e0 1c 3d 2c 20 33 be 30 94 50 3c f8 94 90 bc
       0.03829992 -0.17492741 0.012730643 -0.017649159
000260 2d 5a 21 3e a3 85 22 be 7e 54 de 3d 00 8c 96 3b
       0.15757056 -0.15871291 0.10855959 0.004594326
000270 0b 3a 04 3e 74 59 f3 bd fd cd 33 be c0 a5 4e bd
       0.12912767 -0.11882296 -0.17559047 -0.05045104
000280 a0 e2 58 3d 64 45 23 bd 3c dd 95 3d c1 d8 2b be
       0.0529505 -0.039861098 0.07317588 -0.16781904
000290 51 db 05 be 17 81 c4 bd 50 16 65 bc 6a 27 af 3d
       -0.13071944 -0.095949344 -0.0139823705 0.085524395
0002a0 66 3d df 3d 73 f1 1e be 03 cb 30 3e 42 41 8c bd
       0.10900383 -0.15521793 0.17264943 -0.068483844
0002b0 68 7f de 3c a9 e3 b8 bd 10 05 93 bd e0 ab 9d bd
       0.027160361 -0.09027798 -0.071787 -0.07698798
0002c0 64 6e 03 3d 4c ea 88 3d e5 a4 0e be e0 62 a3 3c
       0.0320877 0.066853136 -0.1393009 0.019944608
0002d0 17 73 13 be a0 71 cc 3c c0 27 ca 3b 00 6d 47 3c
       -0.14399372 0.024956524 0.0061692894 0.012171984
0002e0 ba 97 89 3d ee cd a3 bd c0 03 07 bd 06 e2 ca 3d
       0.06718393 -0.07998262 -0.03296256 0.09906392
0002f0 a9 0c 15 3e 38 fd a2 bc 16 fa 8e 3d a0 6d b4 3b
       0.1455561 -0.019896135 0.06981294 0.0055062324
000300 10 88 40 3c 9a 37 e3 3d 7c a6 7c bd a0 13 e1 bc
       0.01175119 0.110945895 -0.06168221 -0.027475178
000310 bb cf 0f be e8 4a dc bc 38 06 31 be 2e e2 b5 3d
       -0.14044087 -0.026891187 -0.17287529 0.08881031
000320 9e a5 56 bd ab bf c0 bd f6 1f af bd 78 04 83 3c
       -0.05240404 -0.09411558 -0.08551018 0.015993342
000330 10 e7 c8 3c c0 45 18 bd a4 78 19 3d 40 99 3d bc
       0.024524242 -0.037175894 0.037468567 -0.011572182
000340 c6 19 f6 3d 50 ea 18 bd 8c a0 c6 bd a0 22 30 3c
       0.12016635 -0.037332833 -0.09698591 0.010750443
000350 23 23 d2 bd 98 fe 23 3d 8f e6 09 3e 5f 2c 31 be
       -0.10260608 0.04003772 0.13466857 -0.17302082
000360 c2 2a cf 3d c8 c3 23 be b2 50 07 be ec 62 f9 bd
       0.10115577 -0.15992653 -0.13214377 -0.12177071
000370 dc 5d 21 3d 50 b0 02 3c 96 eb 93 3d e0 90 73 3d
       0.039396152 0.0079766065 0.07222669 0.059464335
000380 b3 43 2c 3e 2a 08 d3 3d c9 53 26 3e 95 1e 32 be
       0.168227 0.103042915 0.16242899 -0.17394479
000390 78 9a d8 3c 11 8e 25 3e c0 2e 79 bd 00 89 94 3d
       0.026440844 0.16167475 -0.0608356 0.07252693
0003a0 3e 47 ba 3d 50 15 81 3d f7 e9 e7 bd 39 05 1b be
       0.090956196 0.06302893 -0.11323922 -0.15138711
0003b0 fa d2 ee 3d 4c 41 51 bd 9a 65 84 3d 0c f3 62 3d
       0.11661334 -0.051087663 0.064646915 0.05540757
0003c0 54 eb 30 be 80 46 d7 3a 90 cf 95 bc 79 8d 94 bd
       -0.1727727 0.0016424209 -0.01828745 -0.07253546
0003d0 b0 76 18 bd 58 7e 9d bc 54 6b 31 be f5 4b 15 3e
       -0.037222564 -0.019225284 -0.17326099 0.14579757
0003e0 11 67 23 3e b8 5f 61 3d 8e 71 f1 3d bd 20 03 be
       0.15957285 0.055022925 0.11789237 -0.12805457
0003f0 7f 84 02 3e 0d 02 19 3e b1 4b 24 3e 29 62 06 3e
       0.12745856 0.14942189 0.16044499 0.13123383

classifier.weight f4 [10, 64]
000000 66 3b 92 bd a6 74 de 3d 70 d4 ab bd 00 a8 d5 bd
       -0.071402356 0.10862093 -0.083901286 -0.10432434
000010 48 ae f3 3c 7a 9c 94 3d 40 b9 74 3b 42 67 e5 bd
       0.02974619 0.07256408 0.0037341863 -0.112013355
000020 6a 19 bd bd d8 33 f4 3c 68 f8 f2 3c 88 70 fc 3c
       -0.09233363 0.029809877 0.029659465 0.030815378
000030 00 3c 25 bb fc e5 e8 3d 44 6a 88 3d 38 ce 00 3d
       -0.0025212765 0.11371991 0.066608936 0.031446666
000040 34 67 77 bd e0 44 6d bd fc 6c 1c 3d b8 ab 90 3d
       -0.060401157 -0.057927012 0.038189873 0.07064003
000050 f4 f2 73 3d de b6 d8 bd fc 1c c8 bd 00 d0 67 b8
       0.05955787 -0.10581754 -0.09771153 -5.5268407e-05
000060 b0 11 fa bd b0 b0 e6 bd b4 fb 6c bd b0 d5 70 3c
       -0.12210405 -0.11264169 -0.05785723 0.014699385
000070 28 b5 68 3d 32 de 95 3d e0 23 df 3d 3a d7 8b 3d
       0.05681339 0.07317771 0.108955145 0.068281606
000080 a2 4a 92 bd c0 fb 8e bb 2c 48 bb bd 2c 2d af 3d
       -0.07143141 -0.004363507 -0.09144625 0.08553538
000090 cc 36 30 3d 64 e2 a8 3d 36 76 b5 bd e0 41 a8 bc
       0.04302101 0.082463056 -0.088604376 -0.020539224
0000a0 ca bb d1 3d b0 1a 0e 3d c8 61 9f bd 80 c9 f6 ba
       0.10240896 0.03469342 -0.07782322 -0.0018828362
0000b0 e0 74 fb bd a0 ea fa 3c 32 b2 f6 3d 58 93 d0 bc
       -0.122781515 0.030629456 0.12045707 -0.025460884
0000c0 24 fa 73 3d 08 e6 2f 3d a8 ed a4 3c 0c 17 b5 3d
       0.059564725 0.042943984 0.020132855 0.088422865
0000d0 ee 0f cc 3d e8 72 64 3d c2 00 cf 3d c6 f9 ea 3d
       0.09963976 0.055773646 0.101075664 0.11473422
0000e0 76 81 ea 3d e0 7b e6 3b 46 03 f6 bd 12 58 8e 3d
       0.11450474 0.00703381 -0.12012343 0.06950392
0000f0 c8 d7 da bc 8c 3b a8 3d 80 f5 a1 3b 00 d6 20 3c
       -0.02671422 0.08214483 0.004942596 0.009816647
000100 68 b7 e2 bc f0 ad d2 3d 00 06 53 bb 40 a9 68 3c
       -0.027675346 0.10287082 -0.0032199621 0.014200509
000110 78 ec 33 3d a0 25 4d 3c 3c d7 37 bd 30 2f b6 bc
       0.043926686 0.0125211775 -0.044882998 -0.022239298
000120 60 1b f1 3c f4 49 34 bd c6 f5 ea 3d e4 23 31 3d
       0.029431999 -0.04401584 0.11472659 0.04324712
000130 48 e0 4b bd 9a 19 8d bd 44 00 79 bd 8e d4 91 3d
       -0.04977444 -0.06889649 -0.06079127 0.0712062
000140 90 fe 71 bd 04 c3 2a 3d ca fe ea 3d c4 5c 7e bd
       -0.05908066 0.041689888 0.114743784 -0.062100187
000150 66 f2 9b 3d 4a 95 c2 bd 04 86 20 3d 7c 22 7a bd
       0.07614593 -0.09501131 0.039190307 -0.061068043
000160 28 24 6e 3d 3e 06 fb 3d 10 20 47 bd 70 7a 97 3d
       0.05813995 0.1225705 -0.04861456 0.073964
000170 b8 0f 92 bc 6c 03 86 3d 6c 61 bc 3d b0 d7 45 bd
       -0.01782976 0.065436214 0.09198269 -0.0483014
000180 1e b0 95 3d 00 ed 34 3b ac 21 12 bd 4a 4c aa 3d
       0.07308982 0.0027607083 -0.035676643 0.08315332
000190 96 8d bd bd da 9d 88 3d fc 84 c8 3d 1c 2c 28 bd
       -0.09255521 0.06670733 0.0979099 -0.04105769
0001a0 fc 89 0b bd 80 5c d7 bd 90 5f 1b 3d 24 23 37 bd
       -0.03406714 -0.1051569 0.037932932 -0.044711247
0001b0 60 28 b1 3c fe 5a f7 bd 00 61 9a ba c8 8b cc bd
       0.021625698 -0.12077902 -0.0011778176 -0.09987599
0001c0 b8 41 00 3d 84 42 f1 bd 40 c9 aa 3b 22 31 f4 bd
       0.031312674 -0.11780265 0.005211979 -0.11923434
0001d0 a4 52 a7 bd 28 a1 79 bd 72 f2 ca 3d e4 38 d6 3d
       -0.08170059 -0.060944706 0.09909524 0.1046007
0001e0 6c cf 0f bd bc e7 56 bd 1e 9e e5 3d 88 7c d7 bd
       -0.035109922 -0.052467093 0.11211799 -0.10521799
0001f0 5a 5a a5 bd a8 0e 1f 3d c8 89 e9 3c 22 50 c6 bd
       -0.08073874 0.038832337 0.028508082 -0.09683253
000200 54 26 3d bd 72 2c b9 bd 02 b5 80 bd 54 20 d8 bd
       -0.04617913 -0.090416804 -0.062845245 -0.10553041
000210 00 a1 ee bb 44 cf f2 bd 00 b5 2a ba 50 31 7c bd
       -0.0072823763 -0.11855939 -0.00065119565 -0.061570466
000220 ea 36 f5 bd 62 11 8c bd 3c 09 ac 3d b8 ea c1 bd
       -0.11973365 -0.06839253 0.08400199 -0.09468597
000230 b0 ef fe bc 30 cc 74 bd 08 b7 eb 3d b0 cc 7e 3c
       -0.031120151 -0.05976504 0.1150952 0.015551731
000240 6e a5 c2 3d 48 d4 f6 bd 18 bc d0 3c 70 7a 02 bc
       0.095042095 -0.12052208 0.025480315 -0.007963762
000250 98 8d f8 bd d0 f4 4e 3d 88 83 96 bc 1c 8c 39 3d
       -0.12136382 0.05052644 -0.018373266 0.045299634
000260 46 28 c8 bd 40 46 b4 bb bc 8a c6 bd 40 7f f3 3c
       -0.097733065 -0.0055015385 -0.0969443 0.029723763
000270 b6 e1 cf bd 84 9a 8b 3d 0c 0d 40 3d 04 fa 87 bd
       -0.10150473 0.06816581 0.046887442 -0.066394836
000280 06 40 d9 bd 5e d8 e1 bd 6a 7d e5 3d 30 74 7f 3d
       -0.106079146 -0.11027597 0.112055615 0.062366664
000290 4e 79 d9 bd 40 b7 6c bb c6 fb db 3d 40 6d 9b 3c
       -0.1061884 -0.0036119968 0.10741381 0.018972993
0002a0 60 94 3b bc f2 cc ca 3d c8 55 9e bd 4c e7 aa bd
       -0.01144895 0.099023715 -0.07731205 -0.08344898
0002b0 e0 6b 2b 3d 12 fa c8 3d c4 29 a8 bd 28 54 52 3d
       0.041850924 0.09813322 -0.08211091 0.05134979
0002c0 30 c0 bb bc 28 3d e0 bd 30 f7 ad bd e0 d5 85 bb
       -0.02291879 -0.10949165 -0.08494413 -0.004084334
0002d0 a0 d7 b1 bd 40 b3 1c 3d 90 8f 5e 3d 8c 46 d6 bd
       -0.08683705 0.038256884 0.05433613 -0.104626745
0002e0 38 ea b9 bc ce a7 ef bd da 6b cc bd 60 65 02 3d
       -0.022694692 -0.11701928 -0.099815086 0.03183496
0002f0 98 ad e1 bc 80 65 e0 bd 50 f6 23 3d cc 9f 3f 3d
       -0.027548596 -0.109568596 0.040029824 0.046783254
000300 08 4f 91 bc 98 87 ee bd ae 21 d0 3d 24 9e b1 3d
       -0.01773788 -0.11646956 0.10162674 0.08672741
000310 c0 f8 1a bc 00 5a f0 3b 40 f4 38 3d dc 83 29 3d
       -0.009458721 0.0073349476 0.04515481 0.041385517
000320 86 a6 f7 bd 50 67 0f bd 54 3e 0e bd 7e 3d d4 3d
       -0.12092309 -0.035010636 -0.03472741 0.10363291
000330 a0 7f 4d 3c cc 33 73 3d fc 90 51 bd 40 26 34 3c
       0.012542635 0.05937557 -0.05116366 0.010995448
000340 00 b7 7a bc 54 6a de bd 88 ef ff bc b8 56 df bd
       -0.01530242 -0.10860124 -0.031242147 -0.10905212
000350 ac 7c e3 bd 1e 71 c7 3d 60 8a e1 bc 52 d7 95 bd
       -0.11107764 0.09738372 -0.027531803 -0.0731646
000360 44 0b 56 3d e8 10 c9 bd e0 a6 d7 bc 28 31 8d bc
       0.052256837 -0.09817678 -0.02632469 -0.017235354
000370 fc 64 44 3d c0 63 68 3d d8 02 47 bd f0 86 85 3d
       0.04794787 0.056735754 -0.048586696 0.06519878
000380 40 7b e7 bd 98 3a 00 3d 6c f5 01 bd d6 38 82 bd
       -0.11302805 0.03130588 -0.031728193 -0.06358497
000390 40 4c be bb 54 db 63 bd ac df c3 3d 3c 7a 91 3d
       -0.0058074296 -0.05562909 0.095641464 0.071033925
0003a0 38 24 f4 bc 1a 13 a6 3d e8 64 34 3d 40 42 cf 3d
       -0.029802427 0.08109112 0.044041544 0.10120058
0003b0 ac 49 b8 bd 00 ce 77 ba f0 9b b7 bc dc db c5 bd
       -0.08998427 -0.00094529986 -0.022413224 -0.096610755
0003c0 e8 01 d1 3d dc 28 9a 3d 90 c0 fd bd 5c f4 36 3d
       0.10205442 0.075273246 -0.12390244 0.044666633
0003d0 b4 01 cf bd 20 05 ca bb 40 50 8e bc b8 69 da 3c
       -0.10107747 -0.0061651617 -0.01737225 0.026661739
0003e0 0a 5a 81 3d 4a 89 f0 3d 4a 3d ab 3d 60 fa 92 bc
       0.06316002 0.11744936 0.08361299 -0.017941654
0003f0 e6 33 e3 bd 60 d9 a7 bc 14 e6 6c 3d e6 99 d4 3d
       -0.11093883 -0.020489395 0.057836607 0.10380916

classifier.bias f4 [10]
000000 44 8b ac 3d d0 75 23 bc f8 e4 f9 bc 80 0f aa ba
       0.08425 -0.009976819 -0.030504689 -0.001297459
000010 24 96 48 3d ac ab 61 bd a0 79 a4 3d e2 5b d6 bd
       0.04897131 -0.05509536 0.08031011 -0.10466744
000020 f0 49 56 3d b0 5f 02 3c
       0.052316606 0.007957384

onnx::Conv_61 f4 [16, 3, 3, 3]
000000 51 ab 19 be dd 87 83 bc a6 94 78 bd f6 8f e0 3c
       -0.15006758 -0.016055996 -0.060688637 0.027412396
000010 81 08 7d 3d 67 9b 2d 3c 37 7f 0a 3d 35 ba a2 3d
       0.061775688 0.010596133 0.033812728 0.079456724
000020 c0 0c 40 3e ef b7 d8 bd a4 4e 30 be c2 b4 03 be
       0.18754864 -0.105819575 -0.17217499 -0.12861922
000030 da 80 b6 3d e4 48 18 be a7 92 2b 3e 07 80 43 3e
       0.08911295 -0.14871556 0.16755162 0.19091807
000040 06 1c 39 be 4e dc 30 bd 4f f5 94 bc eb c6 69 3d
       -0.18077096 -0.04317885 -0.018183379 0.05707447
000050 b1 81 43 be 70 3e 92 bb 57 c6 fd 3d 0d 0c 3a be
       -0.19092442 -0.0044630095 0.12391346 -0.1816866
000060 9b e6 51 bc c2 69 16 be d5 40 41 3d bf 7d 53 3d
       -0.012811328 -0.14688781 0.04718097 0.051633593
000070 1e e0 2d be 39 45 3c be 5e a9 3a 3e 92 e0 0a 3b
       -0.16980025 -0.18385781 0.18228671 0.0021190983
000080 bb d9 30 be df d5 2a 3e 7c 52 4e 3b cc bb e2 3d
       -0.17270558 0.16683148 0.003148227 0.11070976
000090 65 dd 3f 3d 35 a5 9f bd 90 f5 12 bd ba f9 a3 3c
       0.046841998 -0.077951826 -0.035878718 0.02001654
0000a0 3f 55 3c 3e 3e f7 16 bc 1f 73 0a 3d bb cd 53 ba
       0.18391894 -0.009214221 0.033801194 -0.00080796675
0000b0 d2 6e 14 3e 68 33 da 3c d5 ca 3d 3e ab 2a fc 3d
       0.144954 0.02663584 0.18534406 0.12312826
0000c0 f4 f5 17 be 5a eb 0d be 26 a0 32 3e 38 bc 80 3d
       -0.14839917 -0.13859311 0.17443904 0.062859
0000d0 f0 03 16 3e a8 80 d2 bd 5f 3f 0b 3e 06 0f dd bd
       0.1464994 -0.102784455 0.13598393 -0.10793881
0000e0 24 6e 1c 3e 12 7b d4 bc 4a cd 22 3e 9a 91 ab 3d
       0.1527639 -0.02593759 0.15898624 0.08377381
0000f0 ea 89 d4 bd e3 8c e5 3d 74 0f e0 3d 0b 3f fd 3d
       -0.103778675 0.11208513 0.109404474 0.1236554
000100 57 0b c2 bd be d8 22 3e 42 78 db 3d ce c8 de bd
       -0.09474819 0.15902993 0.10716297 -0.10878144
000110 50 2e ca 3d d8 8d 0a be ba 11 28 be ec ad 27 be
       0.09872115 -0.13530672 -0.16413012 -0.1637494
000120 b4 a3 f7 bd 1b dd 89 3c 83 29 37 3e 09 60 c6 3d
       -0.12091771 0.016829064 0.17886929 0.09686286
000130 be 82 81 bc 12 c2 da bd c8 ad d5 3d b4 84 36 bc
       -0.015809413 -0.10681547 0.10433537 -0.011140037
000140 de 6a 81 bd 04 2f f0 bd 36 3c 2f be a0 6f 1a 3e
       -0.063192114 -0.117277175 -0.17112812 0.15081644
000150 74 f7 13 3e 65 95 eb bd 62 6f bc bd de fd ce bd
       0.14449865 -0.11503104 -0.09200932 -0.10107015
000160 cf f6 13 bc 67 51 1f be 84 97 e7 bd db 70 20 3c
       -0.009031012 -0.15558396 -0.11308196 0.009792532
000170 25 7a 40 3d 39 93 d2 3d 19 ff 05 3e 76 4c 2d be
       0.046991486 0.10281987 0.13085593 -0.16923699
000180 26 02 3f 3e b7 10 08 bd bc 22 4e 3d ef 35 df bc
       0.18653163 -0.033219066 0.050326094 -0.027247397
000190 eb e2 35 3e d7 c4 d8 3d 6b 13 16 be 73 fa ea bb
       0.17762344 0.10584419 -0.14655845 -0.007170969
0001a0 02 75 36 be 10 a5 68 bd e4 ff 43 be 66 88 0d bd
       -0.17818072 -0.05679804 -0.19140583 -0.034553908
0001b0 32 be 13 be 5f 68 83 bd 64 38 5c 3d c7 ad de bc
       -0.14428023 -0.064163916 0.053764716 -0.027182473
0001c0 df 73 ef 3d 71 35 a2 3d 76 f5 b1 bd 3f fb 8d 3d
       0.116920225 0.079203494 -0.08689396 0.06932687
0001d0 db e2 29 be 46 e6 0d be e3 32 8a 3c dc 22 ec bd
       -0.16590445 -0.13857374 0.016869968 -0.115300864
0001e0 23 24 0a 3c 58 63 42 bd 31 60 fa bd b9 a4 b8 3d
       0.008431467 -0.047458023 -0.12225378 0.09015793
0001f0 42 7f 8b 3c 61 e7 88 bd b9 80 d7 bc 91 da 35 3e
       0.017028455 -0.06684757 -0.026306497 0.17759158
000200 7b 12 52 bc 4b 6f 5e bd 6c 7a d6 3d f7 af 09 be
       -0.012821789 -0.054305356 0.10472569 -0.13446032
000210 dc 65 ff bd 41 2b 3c 3e 67 ad 42 3e 00 94 af 3d
       -0.124706 0.18375875 0.1901146 0.08573151
000220 43 f8 13 3d 07 59 39 3d 5b 6c 88 3c d9 6e 2a 3e
       0.036125433 0.04525092 0.01665323 0.16643848
000230 a0 0e 1d be 85 56 6f 3d 3e 4b c1 bd fd 42 25 3e
       -0.1533761 0.05843212 -0.094381794 0.16138835
000240 d8 67 33 3e da 9f 61 3d d1 dd 0e bc 36 7f e1 3a
       0.17520082 0.055084087 -0.008719877 0.001720405
000250 d0 cb 10 3c 6b a0 45 3d 18 b8 a4 3d b2 fd 9c 3d
       0.008837655 0.04824869 0.080429256 0.07665576
000260 92 f7 37 be 48 8a a9 3b 6a 61 ff 3d a7 28 45 3d
       -0.17965534 0.005173955 0.12469752 0.048134472
000270 32 d7 0f 3e 37 60 e3 3d 5b f3 9b 3d 65 e5 2a be
       0.14046934 0.11102336 0.07614776 -0.1668907
000280 3b 48 a1 3c 66 2e 6e bd de 09 36 be c7 bd 29 3e
       0.019687762 -0.058149718 -0.17777202 0.165763
000290 5a 15 e9 3d f3 04 36 3e 21 1f 8a 3d ca bc 00 3d
       0.113810256 0.17775325 0.067442186 0.031430043
0002a0 a6 b0 91 3d 65 c8 e4 bc 9a 28 54 3c 47 07 03 be
       0.07113771 -0.027927587 0.012949133 -0.12795745
0002b0 35 10 2a be aa 6d 55 bc 42 09 18 be 35 c8 59 3d
       -0.16607745 -0.013026634 -0.14847282 0.053169448
0002c0 82 da 32 3e 72 be c3 bd 94 78 23 be d6 f7 34 be
       0.17466167 -0.09557809 -0.15963966 -0.17672667
0002d0 4e 69 ca 3c b4 4d f7 bd b5 48 43 3e 71 a7 f1 3c
       0.024708416 -0.120753676 0.19070704 0.029498788
0002e0 a3 ca 6b bc 20 e7 2a bd 3a 60 a6 bd c5 5e 02 be
       -0.014391574 -0.041724324 -0.081238225 -0.12731464
0002f0 aa 89 01 be ab 0b fe 3d 77 f8 08 be 02 ab e0 bd
       -0.12650171 0.12404569 -0.13376032 -0.10970117
000300 a5 83 0d 3e df d0 0a be ad f5 19 be 83 31 24 be
       0.1381975 -0.1355624 -0.15035124 -0.16034512
000310 96 c7 1a 3e c0 a4 07 3e 7e a5 db 3d 8e 9b 3c be
       0.15115198 0.13246441 0.107249245 -0.18418714
000320 90 d2 5b 3d dc 6c 1d 3d 19 80 95 3d 4b f5 8f 3d
       0.053667605 0.038433895 0.07299823 0.07029208
000330 fd d7 03 bd 6d 69 cb bc db 7e d1 bd 8a b5 b7 3d
       -0.032188404 -0.024830544 -0.10229274 0.08970173
000340 9a 7b da 3d b2 1a 03 3e 1b 93 5d 3d d1 ae 0d 3e
       0.106681064 0.12803152 0.05409537 0.13836218
000350 12 83 3a 3e c9 22 3e 3e 81 ee 8f 3c 17 c6 ca 3d
       0.18214062 0.18567957 0.017569782 0.09901064
000360 ac b7 18 be 19 85 f7 3d f3 8b 81 bd 39 2d 64 3d
       -0.14913815 0.12085933 -0.06325521 0.05570719
000370 79 63 23 3e ff 5d 9c 3d 8a f6 b9 bd cb ff 10 3e
       0.15955915 0.07635116 -0.09080227 0.14160077
000380 fa e5 54 3d 3a 4a 04 3e b1 20 aa bd 1c 07 3b 3e
       0.051977135 0.1291894 -0.08307017 0.18264431
000390 18 9c 25 be 6a d4 08 3e a3 ce e2 bd 63 c5 11 3e
       -0.16172826 0.1336228 -0.11074569 0.14235453
0003a0 51 81 ba bd c0 6d c3 39 f7 7f c1 3d 45 cd 65 bd
       -0.091066964 0.00037275068 0.094482355 -0.056103963
0003b0 7c 20 e7 bc 3a 4e 00 be 3d 13 71 3d c1 0f 27 3d
       -0.028213732 -0.12529841 0.058856238 0.04078651
0003c0 77 e1 c6 bc 13 d3 1f 3e e6 1d a7 bd 70 09 14 3e
       -0.024277432 0.15607862 -0.081599995 0.14456725
0003d0 fb 60 f1 3d 29 c2 42 3e 1a 5a 18 3d c8 f9 26 3e
       0.11786076 0.19019379 0.037195303 0.16306221
0003e0 64 4c 3f 3e 2d 24 cb bc 9d fa 40 be d2 5d e8 3d
       0.18681484 -0.024797523 -0.18845601 0.1134602
0003f0 76 48 1c be 0b a4 b6 bd 17 9d cd 3d aa a8 25 bc
       -0.15262017 -0.089180075 0.10039728 -0.010111013

onnx::Conv_62 f4 [16]
000000 00 00 00 00 00 00 00 00 00 00 00 00 00 00 00 00
       0.0 0.0 0.0 0.0
000010 00 00 00 00 00 00 00 00 00 00 00 00 00 00 00 00
       0.0 0.0 0.0 0.0
000020 00 00 00 00 00 00 00 00 00 00 00 00 00 00 00 00
       0.0 0.0 0.0 0.0
000030 00 00 00 00 00 00 00 00 00 00 00 00 00 00 00 00
       0.0 0.0 0.0 0.0
